evaluation/saved_model/ddpg_poisson.pt (torch_old, 555306 bytes, 8 tensors)

fc1.weight f4 [256, 24]
00000000: 11bb ce3e 30c6 6ebe 31db d8be aa3b d93b
00000010: bdc9 183c d020 c9bc 6de7 6ebc d114 b83d
00000020: d955 a9bd 72f2 d43d 0abf 273e 661d f83d
00000030: 8294 8b3d 4f4c b1ba 95f9 313e a24f 60be
00000040: 8393 3f3d 5f44 5abe 50c1 00be a3a0 0f3e
00000050: 7bcf 7dbd 3944 febd ac8d 113e ea38 bfbd
00000060: e7d3 053e 38bc 883e 5a00 cf3e b52a e43b
00000070: f108 053e 4992 46bc 9183 633e 97a2 2d3e
00000080: 0ce0 a53d 4df8 2cbe d201 203d ac57 8bbe
00000090: 281e 61be 166f a13c 84f2 603d 7147 a43b
000000a0: 5cf1 a33e 722d d13c 89ee e13d da0f b2bd
000000b0: 5dc3 67bb 4b6d 28be b54a ed3d 62ce b53d
000000c0: a855 b9bd 9346 21bd aba6 05be 636f c0bd
000000d0: 711e 86bd f70a 883e fea9 b63d 0f6b 35be
000000e0: b611 0bbd 8f05 fa3d 8a42 673e f8e8 563e
000000f0: 7be5 c93d 7d9d a13d 4175 cc3d d9e7 99bb
00000100: caa0 4c3d 40c9 aa3e 4f9a 5e3e 480b 8cbc
00000110: d678 ac3e 78de 0e3e 0184 d0bc 28f4 c83d
00000120: e7c8 993d 5022 723e aa53 8dbc 6491 6bbe
00000130: 4312 573e c17c 8abe 18c5 8abe 267f 673c
00000140: b0d9 c63d 2e8a 05be a9be 883d 6cb7 623e
00000150: 8e03 a3bd 4247 4d3e b3ce 523d 1c81 153d
00000160: 0b74 0e3d 2e4e 113e 17be be3e f9d6 713d
00000170: 8997 d23d 8d2c 0dbe e9b1 9cbe 3857 9abe
00000180: 8a93 bf3d ec9c cabe 4956 19be b436 c63d
00000190: dcda ebbd b49d dcbd 960f 083e 7e84 a33b
000001a0: 9944 79be 4bda a6be 0020 dcbe 0678 9bbd
000001b0: d672 28bd c5eb 53be 83d8 7ebd d41e ccbd
000001c0: 17e9 513e 6c39 9a3d 6174 6a3e 3afe 023e
000001d0: dcbf 5c3b 0b8d 6c3d 4e04 1e3e a534 a33d
000001e0: e198 613d 60dc 7e3e 373d 6c3e 6438 803d
000001f0: 9f1c 163e e857 2d3c b905 ab3e 78a0 fbbc
00000200: 4aed 503d a9b6 20be 83b2 d7bd 4198 3d3e
00000210: 1eac 16bd a2d6 a4bc 8d3a 3bbe 438f e8bd
00000220: 2135 7ebe fc86 02bd 7fa2 6dbe 3bd5 e6be
00000230: 3237 16be f162 cbbd 192f 57bd f3b3 fd3d
00000240: fa4b 9dbd 31c2 7cbe be4f b1be e321 fc3d
00000250: 594e ee3e 78e8 b2be 7480 833d d7ae 9cbc
00000260: 3718 9dbc 4654 62bd 86cf a1be 6d4a 9e3d
00000270: d621 893d 41d8 0abe e8e3 8bbe 8327 ccbc
00000280: 3c52 7fbd c862 df3d 7c90 20bd f94a ebbd
00000290: 37b2 3cbd b475 6c3e a9b4 643d b892 813e
000002a0: 0655 5ebe 5c93 bc3e e3d0 d8be 0641 423e
000002b0: 6a24 ab3d eea9 e0bb 9538 aebd 2ad9 95be
000002c0: a395 43be d1b2 263e 3410 683d 33fa 8cbd
000002d0: 17ab 3fbd eda5 20be 708b 82be faf1 ec3c
000002e0: 5485 64bd db8d 8b3d 14f4 313e 7c9b 613e
000002f0: 4eca 973c 1faa 673d 5e11 8e3d e88c dd3d
00000300: aaa8 1a3e a5f7 c1be fe4e d03d 2b7f 50be
00000310: c4b0 0fbe e372 2a3e 7992 163e 48f7 8f3e
00000320: bacc 333e 7264 88bd df1b c9bd 2396 913d
00000330: c183 44bd cf3f 76be 4af6 42be 1cf5 b73d
00000340: 103c 3dbd 3566 ccbd 1263 a9bd 855e 9dbd
00000350: c401 9c3d 1619 0c3e 569f ab3d 7631 1d3d
00000360: 9e0e a5bd 5a7a 76be a698 97bd 7253 103e
00000370: 95ea 8d3d 193d 09bd 1464 823e adda 3a3e
00000380: d938 4d3e 2c6f 4ebe 37fe c93d 51e8 a43d
00000390: 0a4e 29be 743c 24be d3d7 d13c 202a e13d
000003a0: 6026 3b3e 8665 3f3e 6997 52bc 25db 463e
000003b0: d3bc a9bc 43f9 8fbd 574a 1fbe e725 d4bb
000003c0: 3dc5 49bf 1299 913e 864d 863d 5f34 53bd
000003d0: 7eb3 44be 6cae 513e 7a43 b53d ac0b 703e
000003e0: e67d a13e 315a 633d d26a 2d3e aa24 1ebd
000003f0: 88a4 1d3c 46a1 64bd c3cf b0ba fef2 8f3d
0.40377095 -0.2331779 -0.4235473 0.006629427 0.009325442 -0.024551779 -0.014581543 0.089883454
-0.08268327 0.10397805 0.1638147 0.12114982 0.06815435 -0.001352677 0.17380364 -0.21905378
0.046771538 -0.21315144 -0.12573743 0.14026122 -0.061965447 -0.12415356 0.142142 -0.09337027
0.13069116 0.267061 0.40429956 0.006963099 0.12991692 -0.012119838 0.22218157 0.16956554
0.08099374 -0.16891594 0.039064236 -0.27215326 -0.2198416 0.01970629 0.05491878 0.0050133993
0.3202008 0.025534365 0.11031825 -0.0869443 -0.0035364248 -0.16447942 0.11586515 0.08877255
-0.09049541 -0.039373945 -0.1305186 -0.09396245 -0.06548775 0.26570866 0.08919142 -0.17716621
-0.033952437 0.122080915 0.22583976 0.20987308 0.09858223 0.07891367 0.09983302 -0.004696828
0.049958028 0.33356667 0.21738552 -0.017095223 0.3368594 0.13952053 -0.02545357 0.09812194
0.07509022 0.23645902 -0.017251808 -0.23004681 0.2100306 -0.27048305 -0.27103496 0.014129436
0.09709489 -0.13040993 0.066769905 0.22140282 -0.079596624 0.20046714 0.051466655 0.03650008
0.034778636 0.1418998 0.37254402 0.059042905 0.10282809 -0.13786526 -0.30604485 -0.30144668
0.09354313 -0.39572847 -0.14974321 0.096784025 -0.115163535 -0.10772267 0.13287196 0.0049901595
-0.24342574 -0.3258842 -0.42993164 -0.07591252 -0.04112514 -0.20695408 -0.0622182 -0.099668175
0.20499073 0.075304836 0.22895958 0.12792292 0.0033683693 0.057751697 0.1543133 0.079690255
0.055077437 0.24888754 0.23070227 0.06260756 0.14659356 0.0105800405 0.33402804 -0.030716166
0.051007546 -0.1569468 -0.10532095 0.18515112 -0.036785237 -0.020121876 -0.18284054 -0.1135545
-0.24824955 -0.031867012 -0.23206519 -0.45084557 -0.14669493 -0.09930981 -0.05253515 0.12387838
-0.07680507 -0.24683453 -0.3463115 0.12311151 0.4654415 -0.34942985 0.06420985 -0.019126339
-0.019176586 -0.05525615 -0.3160364 0.07729039 0.06695907 -0.13559057 -0.27322316 -0.024921184
-0.062334284 0.10907513 -0.03920029 -0.11488909 -0.046068396 0.23091775 0.055836353 0.2530725
-0.21712121 0.36831176 -0.42346868 0.18970117 0.08356555 -0.0068561947 -0.08506886 -0.29267246
-0.1910005 0.1627915 0.056656078 -0.06883659 -0.046794023 -0.15688296 -0.25497007 0.028923977
-0.055791214 0.06814166 0.17378265 0.22031969 0.018529084 0.056558724 0.06936906 0.10817891
0.15103403 -0.3788425 0.101713166 -0.2036101 -0.14032274 0.16645388 0.14704312 0.28118348
0.17558566 -0.066597834 -0.09819769 0.071087144 -0.047977213 -0.24047779 -0.19039264 0.08982298
-0.04619986 -0.09980432 -0.08270849 -0.07684044 0.07617524 0.13681445 0.0838 0.038377248
-0.08059429 -0.24070111 -0.07402162 0.14094332 0.069295086 -0.033505533 0.2546698 0.1824748
0.20041217 -0.20159596 0.09862941 0.08052123 -0.16533676 -0.16038686 0.025615608 0.10994363
0.18276358 0.18691072 -0.012853482 0.19419535 -0.020719921 -0.07029965 -0.15555702 -0.006474245
-0.78816587 0.28437096 0.06557755 -0.051563617 -0.19209096 0.20476693 0.08850761 0.23441952
0.31541365 0.055505935 0.1693528 -0.038609184 0.009621747 -0.055817865 -0.0013489652 0.07028769

fc1.bias f4 [256]
00000000: 1c63 903e 7c9f febd eba7 c5bc ec9d 563e
00000010: 2118 d53d bf8c 2f3e 6583 593e 8459 b93c
00000020: f38b c6bd e8e0 0f3d e1c1 b6bd 9dd7 c4bd
00000030: 8d7b c8bd 9c36 763e e4b7 2b3e 84b6 af3e
00000040: bc39 1f3d c121 883e 75ef 853c 6a10 683e
00000050: 6f85 01be d293 76be 8788 a1be 29e9 5a3e
00000060: 50dd 953e 334f aebe a04b c83d 3949 1fbd
00000070: 60c0 48be 0f79 863e a915 493d f227 fa3d
00000080: 9269 073e b285 f93c c950 753d c085 2d3c
00000090: 6b85 623d c836 e13c 61cb f2bd cdbe 8a3e
000000a0: 9c35 f1bd d5e3 ccbd 7a5b 313e a0aa d2bd
000000b0: 059b 54be 4c28 053d 047e febd bb47 e4bd
000000c0: f0a3 51be 3c02 33be 38e5 253e f4a9 1abe
000000d0: 6bb5 acbc 1b90 8abe 9930 363e c2d6 9e3e
000000e0: fe54 033e d00e 843e b055 f6bc ff7a 5c3e
000000f0: 5476 4dbe a5c8 2f3e c0a0 303d 94bc 4c3e
00000100: 71f3 38be 7d41 89bc 43aa 5538 e293 babd
00000110: 13c8 dcbd 09ec 3abe 8df2 4fbe 2609 653e
00000120: 7522 533e 49ea 793e b53d 80be 31d5 1e3e
00000130: aa85 4c3d 28af 573e b768 15be 7114 843b
00000140: 961b 27bd 5427 8bbe ffa6 66bd a218 7b3e
00000150: 4381 8d3d b92b 7cbe 111f 0ebc b0a9 533e
00000160: a63a 333e 82e1 16be af85 523e dac5 0cbd
00000170: 408b 613d c056 773d 89f5 123d 17de c0bc
00000180: 7af4 7dbd c254 a03d 534f 22be ec38 543e
00000190: 22e1 b43d 8b6d 1e3d bf3b 44be ef52 b33d
000001a0: 74fd 64be eb2e 60bd 93ef 1c3e 001c 57bb
000001b0: 8d5d 89be 05d0 cb3d 811c abbc c6e0 7f3d
000001c0: 86f3 a8bc 6c2c a9be 92a3 343e 632f 25be
000001d0: 1c4c c73d c2d7 05be dd4a 6c3e c610 c33d
000001e0: 7d3a 963e 78e1 fcbd f1a1 6b3e ae06 5c3e
000001f0: ff34 46bd 3587 8dbe 2075 15bd 6ba7 813e
00000200: fec1 debc 73ef 743e c641 913e c11b 2c3e
00000210: 7b88 d4bd 1015 7ebe cde7 613d 8d30 97bd
00000220: b90c 403e 7cdc 163d a361 1b3d 4376 7ebc
00000230: 0f11 95be 98f5 803e 6e0a bdbd d816 22be
00000240: 86aa 1ebe 936b 423e 77ff 703e d83e ab3d
00000250: a012 093e 1962 d0bd 953b 9cbe d112 a2be
00000260: 7994 eabd 897d 70be f25f 423e 54f3 cf3d
00000270: 21dd 873e a09c 943e 55ec 8b3d d9c8 7c3e
00000280: b946 c73c 293a 4f3c 19f6 d5bd 9c1e cabd
00000290: 9a71 1c3c bff2 283e 593e 803e e840 59be
000002a0: 5d56 633e 2364 a3bd 17dd 6bbe 7561 e4bd
000002b0: 4efb 29be 6e0c a5bd e4a0 08be ac25 a13e
000002c0: 5d11 133e d62b 05bd af03 373e 63d7 30be
000002d0: 63d5 08be 3fac 5abe a29a 9b3e 06d6 983e
000002e0: 7fff ee3d 15bb 153e 6848 793c e023 a3bd
000002f0: c1cf 0b3e 3455 833e 8411 0c3e 1f48 bd3d
00000300: 7c54 433e fc5a 69bd 4360 48bd a05b c7bd
00000310: df78 723e 09dd 243d d9cb 343e 066e 543e
00000320: fec7 3c3e cf78 cebc b447 e73d 94dd 0dbe
00000330: 13b0 bf3c 3f1b 963c b9b1 d23d e365 a9bd
00000340: 2d74 f0bc d7c9 553e dc70 113e 3f66 ca3d
00000350: e2de 78bd 3be2 253e f71f 9bbc e564 5b3e
00000360: 6437 d3bd 3ef5 253e 2d09 3e3e 1d9e e93d
00000370: 1dde 79bd 85bf 71ba 2ac1 d03d 9c94 c2bc
00000380: 534f 2f3e b963 693e 5998 1cbd 1c57 483d
00000390: ec35 59bd 3cea 523e f991 57bd a5ea 3ebe
000003a0: 4f9c 50bd 9a1d e13c cb4f 3d3e aeb0 e83b
000003b0: 6a0e 4b3e a0f8 2bbd 9d9e 0abd 7680 cfbd
000003c0: 148a 0f3d 430b bd3d 5d21 053d a83d 96be
000003d0: 939e 8e3c 6419 9c3e f647 653e 46ad a63d
000003e0: d10e 98be aae2 d83a 0284 483d b765 e93d
000003f0: 3905 e0bd 5ea7 193e f350 4e3e eabf 86bd
0.28200614 -0.12432763 -0.024127921 0.2095868 0.10404993 0.17143534 0.2124153 0.022625692
-0.09694662 0.035126597 -0.08923698 -0.096114375 -0.097891904 0.2404427 0.16769367 0.34318936
0.03887342 0.26588252 0.016349534 0.22662511 -0.12648557 -0.24079826 -0.31549475 0.21378006
0.2927041 -0.340448 0.09780049 -0.03888819 -0.19604635 0.26264235 0.049092922 0.1221465
0.13223866 0.030459259 0.059891496 0.0105909705 0.05530302 0.027491942 -0.11855198 0.27098694
-0.11777803 -0.10004393 0.17320052 -0.102864504 -0.2076226 0.032509133 -0.12426379 -0.11146494
-0.20472693 -0.17481321 0.16200721 -0.15103894 -0.0210826 -0.2706307 0.17791976 0.31023222
0.1282539 0.2579255 -0.030070156 0.21531294 -0.2006467 0.17166384 0.043122053 0.19993812
-0.18061616 -0.01675486 5.0941726e-05 -0.09110238 -0.10780349 -0.18254103 -0.2030737 0.22366771
0.20618613 0.24405779 -0.2504708 0.15511014 0.04993216 0.2106291 -0.14590727 0.004030757
-0.040797792 -0.27178442 -0.056311604 0.24521115 0.0690942 -0.24626054 -0.008674399 0.206702
0.17502841 -0.14734462 0.20558809 -0.034368373 0.05506444 0.060385466 0.03587869 -0.0235434
-0.06200073 0.07828666 -0.15850572 0.20724839 0.08832003 0.038678687 -0.19163416 0.08756053
-0.2236231 -0.054732244 0.15325765 -0.0032823086 -0.26829186 0.09951786 -0.020887615 0.06247022
-0.020623934 -0.33041704 0.17640522 -0.16131358 0.097313136 -0.13070586 0.23075433 0.09524684
0.29341498 -0.12347692 0.23010994 0.21486923 -0.048390385 -0.27642217 -0.036488652 0.25323042
-0.027192112 0.23919468 0.28370494 0.16807462 -0.10377594 -0.24812722 0.055152703 -0.07382307
0.18754853 0.036831364 0.03793491 -0.0155311255 -0.29114577 0.25187373 -0.09230505 -0.15829027
-0.15494737 0.18986349 0.23534952 0.08361596 0.13386011 -0.10174961 -0.30514207 -0.3165498
-0.114541 -0.23485388 0.18981913 0.10153833 0.26535895 0.29025745 0.06832186 0.24685992
0.024325715 0.012648144 -0.1044733 -0.098691195 0.009548569 0.1649885 0.25047567 -0.21216166
0.22200914 -0.07978084 -0.23033558 -0.11151401 -0.16599771 -0.080590114 -0.13342625 0.31474054
0.14362092 -0.03251251 0.17872499 -0.17269664 -0.1336265 -0.21354769 0.30391413 0.29850787
0.11669826 0.14622147 0.015215017 -0.07965827 0.1365347 0.25650942 0.13678557 0.09242272
0.19075197 -0.056971535 -0.048919927 -0.09734273 0.23678921 0.040249858 0.17655887 0.20745096
0.18435666 -0.02520409 0.11292973 -0.13854057 0.023399388 0.018323539 0.10287804 -0.082713865
-0.029352272 0.20877777 0.14203209 0.09882783 -0.060759433 0.16199581 -0.01893614 0.21425207
-0.10313299 0.16206834 0.18558188 0.11407111 -0.06100284 -0.0009221959 0.10193093 -0.023752503
0.17120104 0.22791947 -0.038231228 0.0489112 -0.05302994 0.20597166 -0.052629445 -0.18644197
-0.050930317 0.027479935 0.1848747 0.00710114 0.19829717 -0.041985154 -0.03384267 -0.10131924
0.03504379 0.092306636 0.03250252 -0.29343915 0.017409598 0.30488122 0.22390732 0.08138518
-0.29698804 0.0016547043 0.048954017 0.11396354 -0.10938496 0.15005252 0.20148067 -0.065795735

fc2.weight f4 [256, 256]
00000000: 081f be3d 1dd1 13be 4940 21be 6a61 7d3d
00000010: e453 b9bd 3830 713d 710f 4f38 ddd6 c83b
00000020: 40c4 d53d fc8b 693d 509a a53d d60c 5fbc
00000030: d7c0 d53c dcc6 8b3d 574e 44bd bff1 b73d
00000040: 3796 1fbe 529a a23c 90a2 533c 8965 863d
00000050: 5713 04be 653d 90be ae3d e0bc 1574 b83d
00000060: 455a d3bc 3a29 893c 2981 9bbe da24 bcbd
00000070: 7e89 303d d0ce da3d 4e4e d8bd 6b9c d53d
00000080: 2ccf da3c a308 f2bb f52c d73d 4a0f 543e
00000090: a323 67bc 75e3 893d f00a 1fbd 1340 033e
000000a0: f8b9 033d a1c3 56be b521 fc3c 123f ad38
000000b0: ab16 95bd 3aff 81bc b859 e53b 038d b33d
000000c0: d735 9fbe 5870 c4bc 5276 833d 0233 0dbe
000000d0: 66b3 a8bd 7782 043d fd08 b1bd a352 9fbc
000000e0: e7ca bd3d 7c27 e03c c594 b13d fab6 93bd
000000f0: f0b7 4c3d 0d3f 76bc 8f25 983d 8bcf 503e
00000100: b044 1a3d 77b8 19be 8c92 d93d a3cb 6b3d
00000110: 4656 a9bd 1e1c 29bc 6e37 873c 10c0 183e
00000120: 19bb a23b 52ee 643e 44d7 73be 134c 6c3d
00000130: 06e3 a53d 7d84 163e a7b1 763c f126 4ebd
00000140: 21fc 8a3d da41 1fbe 5e48 683d a481 8d3d
00000150: d7a8 723d cace 5ebe 44d9 f0bd 3465 fe3c
00000160: 4c5a 0cbc a947 ccbd 51c3 b23d da18 72be
00000170: 441b 073e 6671 693e 416b 2dbe b47b d33d
00000180: ff21 07be 9d30 f13d 2c4b 09be df6f 883d
00000190: bfa6 da3c 3f87 12be 4378 253e 86a6 c63d
000001a0: eed7 bbbe 74ff 36bc e2d6 623d e6a4 a7bb
000001b0: 90f9 1bbe 129a 11bc c322 273e 5f8a 63bd
000001c0: 9839 f53d d96c 01be 5422 3b3c a719 ec3c
000001d0: 8e22 4b3d 5699 763b 68d8 003e 6377 783d
000001e0: fdee 9a3d 6bb9 25be a263 a33d 1772 b43c
000001f0: ea34 24be 8f5f 9d3d 2b4c 9a3d bf9d dd3d
00000200: f24d 943c bf74 013e 0fba ab3d 44f9 393e
00000210: 69f2 a43d ad0e 553d 6bf3 bebd e0b9 cdbd
00000220: 4c3d debb c702 36be a8e4 bf3d 673e bc3c
00000230: 43aa aa3d a4d0 4d3d 4b55 7fbe 934f 153d
00000240: 22cc 81bd 3383 b13b 90a9 42bd 6ba8 1bbd
00000250: c21c ba3c 4da4 89bd 88de c3bd b7cd d93c
00000260: 79e2 613e 1e81 16be d4ab 72bb 509c cb3d
00000270: 2d71 a73c 6811 c33d 7b9c a4bc 4549 323e
00000280: 97d5 34be 6762 3fbe 8ca9 07be 2df2 33bd
00000290: d084 44bc 771d 1a3d 52e2 373d 8fc3 d0be
000002a0: 6846 b5be 14fb b93d 438a b53d fb83 823c
000002b0: 5b22 b9bd 1e04 3c3b 8d11 56bd 5335 b13d
000002c0: 12f8 f13d af5b 10be fab0 ce3c 22ca 4abe
000002d0: 53b9 7bba 9a03 1abe 10c5 1a3e ed23 2d3c
000002e0: 65ce 8437 975a 533d 0eac 8bbd 1923 063e
000002f0: 0464 293d fe6a 843c 568a 4f3d 1c2a d13c
00000300: e8fa a6bb d98e d3bc afba d43d 39fc 33be
00000310: f05a f43c e8d2 1f3e 4ac7 f93d 48c0 c33d
00000320: 5cc5 0f3d 3587 463d f770 8ebc c6d5 72bd
00000330: 5b7c 5e3c 53a7 683d b901 643d c3b1 56bd
00000340: 4120 163e b8a7 653e 0833 753d d035 153e
00000350: 6e8c 093d e2f2 723d a62a fc3d 9164 243d
00000360: c450 103e d0d6 213e 5dc1 fa3b 946f 173e
00000370: 7ff4 febd 96b7 373e fd5b ae3c 2987 a93d
00000380: e890 59bc a0fd b63d 2868 9dbd a605 83be
00000390: 9a16 123e e8a3 42bd 51fc 67bd dd85 a1be
000003a0: f698 15be b81e ce3d 8d15 b83c 3e2d 9ebd
000003b0: d9fb 813d 809b 133e c40b e8be 53c7 e53c
000003c0: c9d8 8dbd 8f0f 793c 61fb 0ebd 01c1 f4bd
000003d0: 7add 39b9 aa7f b1bd 7c28 893d 6e3b 023e
000003e0: abeb c33c 34c4 a1bc 9e1c 86bd 8c37 573d
000003f0: 0be9 dd3c 4b0a b4bd 8f8c a33d 0b52 963c
0.092832625 -0.14435239 -0.15747179 0.06186048 -0.09049204 0.058883876 4.9367027e-05 0.0061291293
0.10437822 0.057018265 0.080860734 -0.0136139 0.02609293 0.06825039 -0.047926273 0.08981656
-0.15584646 0.019848976 0.012917176 0.06562335 -0.12898003 -0.2817184 -0.027373161 0.09006516
-0.02579988 0.016743291 -0.3037198 -0.091867164 0.043099873 0.106839776 -0.105618104 0.10430225
0.026710115 -0.0073862835 0.10506622 0.20708957 -0.014107618 0.06732837 -0.03882879 0.12817411
0.032159775 -0.20973064 0.030777792 8.2610306e-05 -0.07279714 -0.015868772 0.0069992207 0.0876713
-0.31095764 -0.02397935 0.06419052 -0.13788989 -0.082373425 0.032350983 -0.086442925 -0.019448584
0.09267216 0.027362578 0.08670954 -0.072126344 0.049980104 -0.015029681 0.07429039 0.20391671
0.03766316 -0.15011774 0.10623655 0.05756725 -0.082684085 -0.010321645 0.016505923 0.14917016
0.0049661514 0.22356537 -0.23812586 0.057689738 0.08099942 0.14698978 0.015057004 -0.050330106
0.06786371 -0.15552464 0.05670964 0.069094926 0.05924305 -0.21758571 -0.1176019 0.031054117
-0.00856645 -0.099746056 0.0872866 -0.23642293 0.13193995 0.22797164 -0.16935445 0.10326329
-0.13196562 0.117768504 -0.13407582 0.06661963 0.026690839 -0.14309405 0.16159157 0.096997306
-0.3668818 -0.011169303 0.05538071 -0.005116093 -0.1523192 -0.008886831 0.16321854 -0.055551883
0.11973876 -0.12639178 0.011421759 0.028820826 0.0495935 0.0037628016 0.12582552 0.06066073
0.07565115 -0.16184013 0.07977988 0.022027059 -0.1603581 0.07684242 0.07534059 0.10821103
0.018103573 0.12642191 0.08385097 0.18161494 0.080540486 0.05201595 -0.09323772 -0.100452185
-0.0067822095 -0.17774497 0.093697846 0.022978975 0.08333256 0.050247803 -0.2493488 0.03645284
-0.06337763 0.0054172515 -0.04752499 -0.038002413 0.02271879 -0.06720791 -0.09563929 0.02658735
0.22059049 -0.14697692 -0.0037028687 0.099419236 0.020439709 0.09524804 -0.020094147 0.17410763
-0.17659603 -0.18689881 -0.13248271 -0.04393213 -0.011994556 0.037625756 0.04489357 -0.407742
-0.35405278 0.090810925 0.08864262 0.015932074 -0.09039756 0.0028688977 -0.05226283 0.08652749
0.11814894 -0.14097475 0.025230873 -0.1980367 -0.00096025056 -0.15040436 0.15114236 0.010567647
1.5831736e-05 0.051600065 -0.06819926 0.13099326 0.041355148 0.0161643 0.050669037 0.025532775
-0.0050958283 -0.025824951 0.103871696 -0.17576684 0.029828519 0.15607798 0.121962145 0.09558159
0.035100326 0.048468787 -0.01738785 -0.0592859 0.013579453 0.056800198 0.055665705 -0.05241562
0.14660741 0.22427261 0.05986312 0.14571309 0.03358119 0.059313662 0.12312822 0.04013497
0.1409331 0.158046 0.007652445 0.14788657 -0.12448978 0.17941126 0.021284098 0.08277733
-0.013279177 0.08935094 -0.07685882 -0.25590247 0.14266434 -0.047519594 -0.056637112 -0.31547442
-0.14609131 0.10064453 0.022471214 -0.07723473 0.06346864 0.14414787 -0.45321476 0.028049147
-0.06926114 0.015201463 -0.034907702 -0.11950875 -0.00017725481 -0.08666928 0.06697175 0.12717983
0.023916086 -0.019746877 -0.06548427 0.052543208 0.027088663 -0.08791026 0.07985794 0.018349668

fc2.bias f4 [256]
00000000: 919c fb3d a127 363c 32b1 d73c 2ee2 313c
00000010: 7288 0dbc 33fa a83d 5a66 463d d839 6ebc
00000020: 2caa 1bbd 319e 15bd eae0 c9bc f5e3 b43c
00000030: 530a 803d 3794 b63d 387c 13bd 6c77 e53d
00000040: 58d8 ba3b 4058 1ebe f0d8 d6bd e147 86bd
00000050: 3390 a1bd e369 873c 8d5a ff3d 233e d73d
00000060: c694 fb3a 57a1 3a3c 0829 773d 99ec 453d
00000070: e78d a93d 6f6c 28bc 4436 84bd 5bfc 25bb
00000080: fcdf 903b 0e30 2b3d 2df5 5a3d b2fe b03d
00000090: 88ee 34bd 6e67 5a3c 7478 8b3d 6bb0 b6ba
000000a0: 4c2f 9e3c 9ae9 2f3d 6971 873c 92e6 afbd
000000b0: e17c da3c a028 dcbb f481 19bd e772 0b3e
000000c0: ac8e 92bd 76b2 983d 5ec4 883d 54eb 9bbc
000000d0: 4473 1039 8990 b23b 896a 07bc c0a4 43bd
000000e0: 58a2 863d 7aeb 2cbc d80b 1dbd b309 79bc
000000f0: 486b 32bd fc2b c83c 5a3d 633d f90a 403c
00000100: b232 e53d 6194 02bd 5e43 46bd fb22 a23d
00000110: e3c7 24bd f689 8fbd 1f09 9fbc eeae ad3d
00000120: 1d19 73bc 0a08 e3bc 5627 263c 7f4f 603d
00000130: 9d2b d43d 6552 8b3d 65e7 1cbd 99ec a2bc
00000140: 32d9 be3d e954 3e3d 2ad4 01bc 20d9 c33d
00000150: 3a3e 4d3a 2c22 cd3c 8215 0fbd 8fbe b53d
00000160: 0e07 64bd 0164 d03c 52c4 17bb a8a8 88bc
00000170: 9f59 d63c e1fd 6e3c 5587 f03c 9e95 90bd
00000180: a0e9 42bd b453 743d 3a2b 6dbc 6bcb c63d
00000190: ff83 cebc 835b 25bc 926b 19be b582 58bd
000001a0: 2624 203d 61c6 363d effe 4ebd 500e 0f3e
000001b0: 3a55 90bd 3217 0e3d 0222 7ebc 9279 10bc
000001c0: 6ea1 7fbd 1050 c13d 3089 623d 6e06 343d
000001d0: 0e39 f43c a29a f03c 77ce 7b3c 1381 303d
000001e0: c86b e83d 57fa 0bbb 4c20 89bc 159b 1abd
000001f0: d5a6 5e3d de79 253d ae6d 523d 0782 7d3c
00000200: 6e1b 0b3d f9c5 8b3d 0877 053c a26c 153d
00000210: f6f5 00bd b480 b03d 8de4 cf3d 780a 5b3d
00000220: b01d 70bd 6340 dabd 4bb2 833d 78a3 bf3a
00000230: 418c 83bd 6874 87bd 3fce 083d 10d7 d2bb
00000240: 9369 cfbd c4d1 83bb b122 b5bd d6b3 b43d
00000250: cb27 b73c 0030 c4bb a6f9 b33c dfed a93d
00000260: c579 94bb b524 1cbd 272c 883d b44b c73c
00000270: 8de4 1c3d c3c7 aabb 0d81 cbbd 909a 0bbd
00000280: 01b4 7fbd 119b 56bc d98b c4bd 774c 103d
00000290: 8c46 20bd 743f e6ba 165f b3bb fe55 3b3d
000002a0: c64a 1bbd 9712 26bc 9844 3bbd 1a21 f8bc
000002b0: 8751 37bc 7e49 4f3d ce55 6f3a 51e1 bebb
000002c0: 6671 f23b d501 c83d 760a 33bb b171 a63b
000002d0: 02ab 49bd e9b0 cf3d bad9 9bbd 8eae a6bc
000002e0: 53e3 8c3c 5321 dfbb 3000 45bd d3ed 68bd
000002f0: e884 6f3d 3731 503d 6fe0 fe3c 61fa 23bd
00000300: d7da 583c bccb 983d e023 2e3d a764 88bd
00000310: f8fa 2dbd 88ef 3a3d 69e4 dbbc c5fe 8a3c
00000320: 88a8 0f3d 04a4 853d 4cf8 4d3c a6f1 53bd
00000330: 7375 893d 4831 34bc 212d 863d 1bec 373d
00000340: d13e c6bd ea3b 9d3d 93e6 093e 21f4 2a3c
00000350: 2fd2 91bd 4614 453d b6cd 663d 96a3 313d
00000360: 8378 03bd f359 cd3c fa28 c93c c844 8c3d
00000370: c163 5dbd ea55 3f3d a7ba 24bd c594 57bd
00000380: cc96 163d ea34 a0bd 1229 cf3c d95d b83d
00000390: fdc2 433c aa99 623b 1baa 61ba 31c7 1b3d
000003a0: 7ff4 523d 330c a43c 80cd 7b3b 8c49 d6bc
000003b0: 4f0e cc3c 2ea6 863d a463 533c d0c6 fd3d
000003c0: cc0d 1ebd 5eea e7bc 92db 7cbd 4e92 863d
000003d0: 854d 0ebc 6f05 3f3d d8ef af3d d15f 27bd
000003e0: 1646 a4bc 663a 5dbd 7e86 07bd e8eb 55bd
000003f0: 8ca7 23bc 2ea2 8f3c 4e74 ff3b 75c5 813c
0.12285722 0.011117847 0.02632961 0.010857148 -0.008638488 0.08250847 0.048437454 -0.014540158
-0.038004085 -0.036527816 -0.02464338 0.022081355 0.06251969 0.089149885 -0.036007136 0.112044185
0.0057020597 -0.15463352 -0.10490596 -0.065566786 -0.07888832 0.016529983 0.12468443 0.105098985
0.0019194118 0.0113910055 0.060341865 0.04832134 0.08279019 -0.010279759 -0.06455663 -0.0025327418
0.0044212323 0.041793875 0.053456474 0.08642329 -0.044172794 0.013330324 0.06810084 -0.0013938075
0.019309662 0.04294739 0.01653357 -0.085889 0.026670875 -0.00671871 -0.03747745 0.1361805
-0.07156119 0.07455914 0.06678079 -0.019033112 0.0001377585 0.005449359 -0.008265146 -0.04776454
0.06573933 -0.010554189 -0.038341373 -0.015200066 -0.043559343 0.024435036 0.05547843 0.011721366
0.1119131 -0.031879786 -0.04840409 0.07916828 -0.04022969 -0.07008736 -0.019413529 0.08480631
-0.01483753 -0.027713794 0.010141214 0.054763313 0.10359881 0.06802825 -0.038306613 -0.01988821
0.093187705 0.046467695 -0.007924119 0.09562898 0.0007829402 0.025040708 -0.03493262 0.08874237
-0.05567079 0.02543831 -0.0023157788 -0.016681984 0.026165782 0.014586897 0.029361406 -0.07059787
-0.047586083 0.059650138 -0.014475638 0.09706768 -0.025209425 -0.010092619 -0.14982441 -0.052859027
0.039096974 0.044622783 -0.050536092 0.13970304 -0.07047506 0.03469009 -0.015511038 -0.008818047
-0.06240981 0.09439099 0.055306613 0.043951444 0.029812362 0.02937061 0.015369049 0.043091845
0.11348683 -0.002135893 -0.016739033 -0.037745554 0.054358322 0.040399425 0.05137413 0.0154728955
0.033961706 0.0682487 0.008146055 0.036480553 -0.031484567 0.08618298 0.101510145 0.05347678
-0.058622062 -0.10656812 0.06430491 0.0014620861 -0.06423236 -0.066139996 0.033399817 -0.006434329
-0.101275586 -0.0040228087 -0.088445075 0.088233635 0.022357842 -0.0059871674 0.021969628 0.082973234
-0.0045311176 -0.038120944 0.066490464 0.02432809 0.0383039 -0.0052118017 -0.09936724 -0.03408295
-0.062427524 -0.013098494 -0.09596986 0.035229173 -0.03912978 -0.0017566518 -0.0054739816 0.045736305
-0.037913106 -0.010136268 -0.045719713 -0.030289222 -0.011188871 0.050607197 0.00091299124 -0.0058251997
0.007398772 0.097659744 -0.0027319468 0.005079471 -0.04923535 0.10141165 -0.076098874 -0.020346906
0.01719824 -0.0068093925 -0.048095882 -0.05686743 0.05847636 0.050828185 0.031112878 -0.0400337
0.013235769 0.07460734 0.04251468 -0.06659823 -0.04247567 0.04563859 -0.026842313 0.016967187
0.035072833 0.06525424 0.012571406 -0.051744126 0.06711855 -0.010998078 0.065515764 0.044902902
-0.0967995 0.07677443 0.13466863 0.010434181 -0.071201675 0.048115037 0.056348525 0.0433689
-0.03209735 0.025067305 0.024555672 0.068490565 -0.05405021 0.046712793 -0.040217068 -0.052632112
0.036764905 -0.078225926 0.025288139 0.09002275 0.011948344 0.0034576454 -0.00086084165 0.03803176
0.0515027 0.020025348 0.0038422048 -0.026158117 0.024909167 0.06574665 0.012902174 0.12391436
-0.038587376 -0.028309997 -0.061732836 0.06570874 -0.008685474 0.04663604 0.085906684 -0.040862862
-0.02005295 -0.05401077 -0.033087246 -0.05222693 -0.009988677 0.017533388 0.007795847 0.015841225

fc3.weight f4 [256, 256]
00000000: fd0b a6bd 9fca 393e bc11 ae3b 93b3 02be
00000010: 8f01 c13d fac3 05be 72e5 6e3d e81e 2f3d
00000020: 51df b8bc 4134 593e d072 d0bd 5cc8 3c3d
00000030: af60 f6bc 0f1d c9bd 5295 c73b 3d0b fb3c
00000040: 7632 23bd 134d 3cbf d2c3 c6be 1158 28bd
00000050: d29b efbe 2f74 37bd 2dfc 01bd 7855 fdbb
00000060: 758c 6ebe c725 98bc 94b9 1e3e 11f8 1e3d
00000070: 8abc edbc 4491 ed3d cd66 f43c 9295 60be
00000080: 7c4c a0bd 4176 5abd 40d2 0fbe 25ed 88be
00000090: dd76 6d3d e1d9 e13e 5571 0fbf 570a c43e
000000a0: 50f3 5d3d fe15 f9bb 61df 00bd 22cd 79bc
000000b0: f131 fe3d 5afc 8dbc df3a 4a3c 5025 0bbd
000000c0: 65c2 003e 8574 a93d c6f6 b43c 06b3 e2bd
000000d0: 2c85 96bd 078b 163e a375 713e 4c64 b4be
000000e0: 6af6 273d 7ffe f8be 8e56 f63d a06c 3e3d
000000f0: 2032 1cbe 32a6 fcbd ad19 b43b 7e28 a3ba
00000100: b005 f1bd 9b01 adbd 6093 693d 97f6 e83d
00000110: 7ef1 05be 93b8 b5bd a59c 8cbd 758c d6bd
00000120: 5d07 05bd 91cc dcbd e6e4 2c3e e7a9 a0bd
00000130: c22d 56bd 1bef 8ebe daea bf3b 27d1 1ebd
00000140: 4f42 06bd aa24 163c 4219 be3b 02cb 0fbd
00000150: d35c e0bc a805 c2be f9e2 6a3d fda9 90bd
00000160: 533d c23c 8045 2ebc 658b d63c 00d5 be3d
00000170: f3c0 ecbd dfb3 c13d f2d2 9abd 0822 2dbd
00000180: d04c 2cbe 7ba1 233d 412b 973c a8f3 8dbe
00000190: 1297 dcbe 3ca2 3f3d 1afe 07bf b7ff b7be
000001a0: 7b71 8cbe ee3c 9e3d 7542 8abd 5dad 843d
000001b0: 405d 48be 5bbd 04bc 834a 55be 9d65 29bd
000001c0: 50c7 1abe 4589 cf3c 5000 8bbc 3266 313e
000001d0: 56c6 093d 9b44 a9bc df91 11be db0b 933d
000001e0: a770 dfbd d8bd a6be db4e e4bd e374 233e
000001f0: cf05 36bd 72d1 1bbc 936a 4c3d f12b 9bbc
00000200: 64e8 21bd cc32 45bd 32eb 0bbd 432e 49bd
00000210: 32da 2f3d 75b7 0ebe 2f29 0f3c a266 ae3b
00000220: f6ec 6b3d 9e5e c3be c1fb 8dbe d610 12bd
00000230: 191a e83c 3da8 d4be bf21 d6bd c039 63bc
00000240: fa3f 853e 2b6d d73b dc67 363e 0659 fcb9
00000250: 1572 afbb 6160 0cbd b0cd 7dbd a943 573d
00000260: 4b3b 053b d422 32bd 476d 6abd 2ced f83d
00000270: 2062 11bd a637 84be e558 87bd f6eb 483d
00000280: c30c f7bd d5c5 5c3d 2d65 ef3e e8cf 0cbd
00000290: a7d9 adbc 613e 2cbd 6a55 84be 1c15 a1bd
000002a0: 1185 433d a67d 82be 9198 9a3d 3ca0 4b3d
000002b0: 8659 d5bd 54a9 553d 63a2 24bd eeb3 0cba
000002c0: e6ef 9a3d 47de ea3c af7b 523d 9953 e83c
000002d0: 60b8 5abb 45d5 b83d d3bb e43e 36b5 3a3e
000002e0: 2e58 cf3c eab3 97bc 23d6 96bc 50f7 013d
000002f0: 1954 05bf 2ecb bdbd acb6 1fbe 2b67 fa3d
00000300: 19b8 0cbe 7be8 c1bd 30fc 68bc 45f8 adbc
00000310: 14e3 eabc 9109 66bc abaf 943d 1550 9a3d
00000320: 6118 39bf 3ffe 863a 4e8b 07bf 825d 753d
00000330: 307a 9a3d 111b 6f3e 47d1 b7be eb1d 90bd
00000340: 93a0 eb3e c91d d7bb 042e 86bd 9330 783d
00000350: 4b56 44bf fef6 973d 0ddd 53be a813 60bc
00000360: 9254 37be 64e3 bfbc d86c f1ba 184c b3be
00000370: 3f07 dd3d 1cc6 6cbc ec08 483d 4bad 933c
00000380: 9a04 86bc f525 02bf 2e8d d33b e0ff 5b3d
00000390: 03a1 2a3f c428 4f3e f26d 3d3c 570c 963d
000003a0: a05c acbd 1964 673d 8336 163e db1e 8c3d
000003b0: e0b4 86be bc48 d2bd 52e0 5dbe 42c6 ac3c
000003c0: 8020 9ebe d4e6 d7bd 6912 1a3d 9956 e4bd
000003d0: 7d2e 303d 66ec df3d 109c 153e 0623 90bb
000003e0: de72 a6bc 03c3 6f3c 5e6e 143d 765a 71bd
000003f0: 25dc 81be d7a1 51bc f467 59be f934 4abd
-0.08107755 0.181437 0.0053121727 -0.12763815 0.094241254 -0.1306304 0.058324285 0.042754084
-0.022567423 0.2121134 -0.10178149 0.046089515 -0.0300754 -0.098199956 0.0060907984 0.030645007
-0.039843045 -0.73555106 -0.38821274 -0.04109961 -0.4679857 -0.044788536 -0.031734634 -0.007731136
-0.23295768 -0.018572701 0.1550048 0.038810793 -0.029020566 0.11599973 0.029834175 -0.21932057
-0.07827088 -0.053335432 -0.14045048 -0.26743427 0.057974685 0.4411154 -0.56032306 0.3828914
0.05418712 -0.0076014986 -0.03146303 -0.015246661 0.12411869 -0.017332245 0.0123431375 -0.03397113
0.12574156 0.082741775 0.022090327 -0.11069302 -0.07349619 0.14701472 0.23580031 -0.3523277
0.041006483 -0.48631665 0.12028228 0.04649031 -0.15253496 -0.12336387 0.005496225 -0.0012447981
-0.11768663 -0.08447572 0.057025313 0.11375158 -0.13080403 -0.08873095 -0.06865815 -0.10476009
-0.032477725 -0.107812054 0.16884193 -0.07844906 -0.05228973 -0.27916798 0.005856854 -0.038773682
-0.03277808 0.009164015 0.005801351 -0.035105713 -0.027388012 -0.3789494 0.057345364 -0.07063673
0.023710882 -0.010636687 0.026189515 0.0931797 -0.1156024 0.09458136 -0.07559766 -0.042268783
-0.16826177 0.03994892 0.018453242 -0.27724957 -0.43084008 0.046785578 -0.53122103 -0.35937282
-0.2743033 0.07726465 -0.06750957 0.06478379 -0.19566822 -0.0081017865 -0.20829205 -0.04135667
-0.15115094 0.02533401 -0.016967922 0.1732414 0.033636414 -0.020662596 -0.14215802 0.071799956
-0.109101586 -0.32566714 -0.11147853 0.15962557 -0.044439133 -0.009510385 0.049906325 -0.018941851
-0.039528266 -0.048144147 -0.034159847 -0.049116384 0.042932697 -0.13937171 0.008737846 0.0053222934
0.05759903 -0.38158125 -0.27731135 -0.035660587 0.028332757 -0.41534606 -0.10455655 -0.013868749
0.26025373 0.006574293 0.17813057 -0.00048131513 -0.005354176 -0.0342716 -0.061963737 0.05255476
0.002032953 -0.043490246 -0.05723312 0.12154612 -0.03549397 -0.25823706 -0.06608752 0.049053155
-0.12062981 0.053899605 0.46756878 -0.034377962 -0.021221949 -0.042051677 -0.25846416 -0.078653544
0.047734324 -0.25486487 0.07548631 0.04971336 -0.10417466 0.052163437 -0.040193927 -0.0005367388
0.07565288 0.028670443 0.051387485 0.028360175 -0.0033374056 0.09025053 0.44674549 0.18233189
0.025310602 -0.018518407 -0.018412655 0.031729996 -0.5208145 -0.09267269 -0.15597028 0.12226709
-0.13742103 -0.0946817 -0.014220282 -0.021236548 -0.028672732 -0.014040367 0.072600685 0.07534806
-0.72302824 0.001029916 -0.5294694 0.05990363 0.07542837 0.23350169 -0.35901853 -0.070369564
0.46020946 -0.00656483 -0.065517455 0.0605932 -0.7669417 0.07420157 -0.20689793 -0.013676561
-0.17903355 -0.023423858 -0.0018419279 -0.35018992 0.10792398 -0.01445153 0.048836634 0.018026968
-0.016359616 -0.5083917 0.006456039 0.05371082 0.66651934 0.20230395 0.011561858 0.073265724
-0.08416104 0.056491945 0.14669232 0.06841823 -0.26309872 -0.10267779 -0.21667603 0.02109063
-0.3088417 -0.10542074 0.037615214 -0.1114933 0.043013085 0.10933761 0.14610314 -0.0043987064
-0.020318445 0.014633897 0.036238067 -0.05892416 -0.2536327 -0.012794933 -0.21231061 -0.049366925

fc3.bias f4 [256]
00000000: 61c6 993d 479a d73c 7bc2 f8bc f2ad a4bc
00000010: ebf5 3d3d 3916 a23d 3298 8cbd 86f0 c73c
00000020: 1cb0 893c ed5d e1bc 2fb9 fdbb c17c 26bd
00000030: e07e 813d 4c97 25bd bf40 333d b870 523c
00000040: 08f1 803c 2e39 673d e24e 733d c3a1 873c
00000050: 6fcd 8dbd 302c 523d 871c 913d 996a 3c3d
00000060: bd39 823c d80b b6bd d3c4 b93b 8af4 5a3d
00000070: b1c7 72bc 25e4 cd3c 4584 ec3c ddb7 e83a
00000080: 7f08 8e3d 68af 0c3d 30f6 473d 6704 a73c
00000090: 4316 92bd dbb1 4b3d 16e7 a43c d5eb b83b
000000a0: 6c74 473c eaf4 d73d 9bcc fcbc 27bd 193b
000000b0: d281 3c3b 058e f1bc fccd 973c 1a92 8f3c
000000c0: a9c1 8dbc 1803 0dbc d179 99bc 6b6a 02bc
000000d0: 8cdf 3a3d 0b23 ec3c d7e1 81bd 3028 183d
000000e0: caa3 5bbc dafc 603d 5fde 92bd 042f 2abd
000000f0: 03d9 0abc 1e6f ab3c 5431 113d 6b41 0ebd
00000100: 2e27 1f3d 1f5f 37bd bbcc 3ebc 33d1 713c
00000110: 0507 5c3c d1af 1f3d 39f5 aa3d fe38 30bd
00000120: 04a5 323d d95c c63d 1b99 563d 40d7 51bd
00000130: a5cf be3c 283b b2bb 72fa 6d3d f4c3 ac3c
00000140: a7fc 983d 21ed 963c ca1e 0c3d c25c 093d
00000150: e500 903c 53f0 e13c 58d6 5b3c 11dc fe3c
00000160: 07a9 223d d9f9 72bd e031 2f3d c8b8 9a3d
00000170: 6556 b1bc ede8 97bd 4e4b cd3b 99f5 cd3a
00000180: 437c 8bbd 4b5e 293d 9e62 89bd a7cf 88bd
00000190: 8937 123c 9a45 033c 1c09 a33d f8dd 43bd
000001a0: c54e e1bc 9388 af3d fcce b4bd e54e 87bd
000001b0: bfea 693d 669a 333d 28b3 de3c 753d 8b3d
000001c0: 1c53 9dbc 4102 193d 5cda 11bd b482 843d
000001d0: 4113 9e3d 820c 133d af35 1d3d 98c3 4e3d
000001e0: f1c1 e7bc 537d 833d 1bc8 153d e8f2 24bd
000001f0: ea8f 06bd 1b39 063e 186f b53d 091e 1d3c
00000200: 18d9 42bd d33b 693c 4374 033c 8b11 4ebd
00000210: ba8d 073d 4f5e c33a e2e7 2a3d b7c1 a63c
00000220: c54f b43d d42d ebbb b74d 6abd 1eed 74bc
00000230: 2094 063d fde2 bd3c 1fa5 30bb 6c03 aa3c
00000240: ee86 fc3c af16 1bbc 9a45 9fbd 42b5 01bc
00000250: 28ff f03d 1102 1a3d b1ce 343c 830c 153c
00000260: 7901 1ebd e03c d63c dbf7 34bd 6af6 1cbc
00000270: 22e3 e6bb ef65 063d 95ca 85bc 4644 323d
00000280: 3961 1fbd 18ca 52bc 1de2 05bd 65e6 85bc
00000290: 41ed 59bd 38d1 e8bb a2a4 9cbd b9f6 6c3d
000002a0: 9826 2e3b 0da4 183c 7adc e5bc d7ff fa3c
000002b0: f5d2 dc3c 5300 b53c b3dd dcbc 35a7 89bb
000002c0: 26b1 e13d 0681 b93b 3eff 4b3d cacf 53bd
000002d0: ab3b 523d 1208 a53b 94fd 92bd 4ed5 b5bc
000002e0: 03f0 22bd 6513 813d f586 573d 22b6 7c3d
000002f0: a982 04bd 3f2c 8d3d e2bc a5bc eeff d2bb
00000300: b9d7 273d 7c7f b33d 8a2e b03c e8c6 30bc
00000310: 4715 563d 5099 59bc bb86 27bd 50b6 a53b
00000320: 4e47 e33c 2432 dc3c 6db3 723b a551 23bd
00000330: 6806 a9bc 3a09 4dbd 713c 8fbd 0b70 c5bc
00000340: a3f4 563d c518 963d dc57 91bd 3ea5 cebb
00000350: 3a50 743c 4f1f 6cbc f73c 923d f7a3 3d3d
00000360: 8a97 373d 108a d73b 7092 a93c c31e fd3b
00000370: 0dca 733d 321e 69bb 6663 1e3d 8b25 87bc
00000380: 97ab f33c 8694 b53d f229 ae3d ecc2 3d3c
00000390: bc6f efbc 43f9 4c3d 96e2 30bd 9134 e4bd
000003a0: 239c 9f3b 6baa d23c 0c08 2d3d 566a 02bd
000003b0: 408c 04bd dfe4 debc 2684 06bd a379 61bd
000003c0: 682b a2bc f73c 30bc ae95 073d f69c a63d
000003d0: d11f f83c 4d91 4ebd 8a4d 8dbb 74d8 28be
000003e0: 4be8 44bc 9e45 a63c 583a 0a3c 6012 a03d
000003f0: f9aa b93b 8778 2a3d 74cd 8f3d 13d7 0dbd
0.07508541 0.026318682 -0.030366173 -0.020102475 0.046377104 0.07914395 -0.068649665 0.024406683
0.016807608 -0.027510608 -0.007743023 -0.04064632 0.063230276 -0.04042749 0.04376292 0.012844257
0.015739933 0.056451015 0.0594014 0.016556626 -0.06923949 0.05131167 0.07085519 0.046000097
0.015896672 -0.08888978 0.005669215 0.053455867 -0.014818118 0.025133202 0.028871665 0.0017754991
0.06935214 0.034346968 0.048818767 0.020387841 -0.07133152 0.049730163 0.020129722 0.0056433477
0.012173753 0.105447605 -0.030859282 0.002345869 0.0028763902 -0.029486666 0.018530838 0.017525721
-0.017304258 -0.008606695 -0.018734844 -0.007959942 0.045623347 0.028825304 -0.06341904 0.0371477
-0.01340575 0.054928638 -0.0717132 -0.041548744 -0.008474591 0.020927008 0.035447434 -0.034730356
0.038855724 -0.04476845 -0.011645491 0.01475935 0.013429408 0.03898603 0.08347554 -0.043023102
0.043614402 0.09685678 0.052392107 -0.05123067 0.023292372 -0.005439181 0.05810017 0.021089531
0.074700646 0.018423619 0.03420905 0.033535726 0.017578552 0.027580416 0.013417803 0.031110795
0.03971198 -0.059320305 0.042772174 0.075547755 -0.021647641 -0.07417474 0.0062650805 0.0015713453
-0.068108104 0.04134969 -0.06708263 -0.066802315 0.008924373 0.0080122 0.07960722 -0.047819108
-0.02750338 0.08570971 -0.08828542 -0.06606845 0.057108637 0.043848418 0.027185038 0.067988314
-0.019204669 0.037355665 -0.035608634 0.06470242 0.07718516 0.0359006 0.038381275 0.0504795
-0.02829072 0.06420388 0.03656779 -0.040270716 -0.03285209 0.13107722 0.0885908 0.0095896805
-0.047570318 0.014235455 0.008023324 -0.0503097 0.033094145 0.0014905425 0.041725047 0.020356042
0.08804277 -0.007177094 -0.05720302 -0.014949111 0.032856107 0.023179526 -0.0026953889 0.020753585
0.030826058 -0.009465857 -0.07776947 -0.00791675 0.11767417 0.037599627 0.011035607 0.009097221
-0.038575623 0.026152074 -0.044181686 -0.009580234 -0.0070461193 0.032812055 -0.01633195 0.043522142
-0.038911078 -0.012865566 -0.03268634 -0.016345212 -0.05320478 -0.007105019 -0.07648589 0.05785248
0.0026573297 0.0093164565 -0.028059233 0.030639572 0.02695606 0.022094881 -0.026961183 -0.004200841
0.110201165 0.0056611327 0.049803965 -0.051711835 0.051326435 0.0050363624 -0.071772724 -0.022196438
-0.039779674 0.06302527 0.05261894 0.061697133 -0.03235117 0.06893205 -0.020231668 -0.0064392006
0.040977214 0.0876455 0.021506567 -0.01078961 0.052266385 -0.013281181 -0.040899973 0.0050571337
0.027743962 0.026879378 0.0037033216 -0.039872784 -0.020632938 -0.050057627 -0.0699395 -0.024101278
0.052479398 0.07328943 -0.07096836 -0.0063063195 0.014911706 -0.014411761 0.07140534 0.046298947
0.044822253 0.0065777376 0.02069971 0.0077246143 0.059518863 -0.0035570976 0.038669012 -0.016497394
0.029744906 0.08866219 0.08504094 0.0115821175 -0.029228084 0.050042402 -0.04318484 -0.11142839
0.004870908 0.025716027 0.042244002 -0.03183969 -0.032360315 -0.027208744 -0.03284087 -0.055047642
-0.019796088 -0.010756723 0.03310173 0.08135407 0.030288609 -0.05043154 -0.004312222 -0.1648882
-0.012018274 0.020296868 0.008436762 0.07816005 0.0056661335 0.04161885 0.07021609 -0.03462894

fc4.weight f4 [2, 256]
00000000: 0d39 f8be 242c c2be 0b9e 9d3c 5420 1d3d
00000010: 9ffa 513d 9cc3 53bc 8911 e63d b8cf b3bd
00000020: 0944 98bc 0dc4 583e 12d0 ec3c 7592 d2be
00000030: 2465 7e3b 8bc8 de3d 6676 7cbe 89e6 993d
00000040: 75b9 1fbd e364 40bf e6ab f33c f6ff 883e
00000050: b7ab 30bd 66bf 703e 9e9b 763e 5d94 f3bc
00000060: 7479 acbd 19b1 6a3f 4cfb fa3d 3613 73be
00000070: 9166 11be 1a70 0abd 17ea a8bd 38ff 5b3e
00000080: 64d0 c83d 5cb7 7c3e 75d8 c5bb 6e0e 1a3d
00000090: 0a47 cabe a8a1 8ebe 01f4 34be 6258 3b3e
000000a0: 1102 aebd 9a55 d5bb 4ca6 54bc 2e63 843d
000000b0: 22b5 09bc 6534 82be 960c 01be d7ea 38bd
000000c0: 5ca9 dbbe cd0e f7bd bf49 16be ff8c 17bc
000000d0: 64e1 30bf e93d 65bf 185f 48bd b429 fbbe
000000e0: 2a57 72be 3c28 36bf 593b c43b e3db a5bc
000000f0: 0054 933e 6433 573e f126 7c3e 3f3a c23d
00000100: b3ea cbbe 6a75 a03c 7054 723e 52e5 d7be
00000110: 540f 143e 370c 573e a89e e8bd 06e7 10be
00000120: 2b7b 4b3f 4168 533e ac4f 193c 78cf d3bd
00000130: 0223 9dbd b32f dd3d 9a18 e33e b117 3fbf
00000140: 0d8d 28be 3e65 1c3e 3a22 ebbc 96a3 b8bd
00000150: e13a 8abc 63bc efbe 12c6 e13c baa3 68bc
00000160: 9b46 b53b 57e2 51be 2e09 3bbc efeb a8bb
00000170: 3c40 8fbd 6b22 4d3d 1745 a5bd a232 ffbe
00000180: 5212 eebd 8c21 f2be b5fc 5cbd 3e90 fbbc
00000190: c3e8 d8be 7dda ca3c a09e 8fbb 00e4 ad3d
000001a0: 77a9 cb3c e6cf e5bd 6d0d 78be ab35 11bf
000001b0: 6e95 113e 52ad e3bf 936d a3be e996 b13d
000001c0: c374 2d3d 7e3d 623e d77d 54bf b701 0cbf
000001d0: 8ff5 75be 13dd 9d3e 379c 9ebe f40a 20bc
000001e0: f3d3 443d e829 793e 2ec7 753b 987f 0a3d
000001f0: f511 d1be c033 6b3b 1f0a a13c 35fc bc3e
00000200: c0b2 d3bc 5a90 52bb 2e2b 663e 8772 cabd
00000210: c391 3a3e cf43 9dbd dd82 e0be 33c8 d4be
00000220: 1a3b bdbe 5162 78be b35d 58bd f22a dabc
00000230: baad bebc a34b 30bd 03ae 5cbe 7eec 5d3e
00000240: 8ace 1dbb dc31 36be f5f0 f0be 9b5d 7e3e
00000250: 6249 883e d059 07be 53c3 8e3e 8017 813e
00000260: 30d2 03bf 5ac9 123d e855 393e d06d 86be
00000270: b6af 83ba d2ac b0bd 550d eebe e00d eebe
00000280: c07f ae3e d1ff 143e c83e b3ba 6f15 9fbe
00000290: e33f 2c3b e2b7 4d3d 9443 3dbe 6f09 cebe
000002a0: 1dd6 453d 2366 eebd c65d 1bbd 41c0 0b3e
000002b0: e6c4 76bf d82a d8be b3a3 463e 3e93 773e
000002c0: 6b52 72be 1ddd 483d 70b5 9ebd 5349 78be
000002d0: 5a7d 873c 0d8a 1a3d d771 02bf 200d debe
000002e0: 9529 e1be 3b55 d6bc 2c54 c9be 914f 2abb
000002f0: 2a41 073d ce9e a13d 8890 4f3d 59be 87be
00000300: 6fae d7bd d261 fcbd 31b9 733e 2091 c9be
00000310: 4e07 633e 2a1b 9bbe b65b d7be f9eb 48bd
00000320: fbe9 f33d 3a54 7cbe c2bd 71bf aa03 37ba
00000330: 164c 8a3e 49a2 d539 a18e a7be dc3d 61bd
00000340: b152 533d 5a73 febe b9a9 a3be ba09 97bc
00000350: f3d5 67bf 90bf 623e f4d2 edbc c7a3 35bc
00000360: 9ccd d0be 99e0 a83d 5231 f53d 3c2b 85be
00000370: e52c f73d ab97 463c 88cb 17bf dd44 10bd
00000380: f0f1 c3bf 10e2 57bb a9ba d4bf f461 dd3e
00000390: d1bc 253e c8fc 26bd 6e71 06be 0a6c 093f
000003a0: 8c2e 72bd 6470 1dbf 06af 5e3e e495 87bc
000003b0: 3506 1cbd 8f6d 6abd ae42 373c 7f0a 033d
000003c0: 0600 fabb 7ae7 99bc 8d5b f3bd a32d b13c
000003d0: caab fabe 6658 89be 7201 f4bd 3101 c4be
000003e0: f5ea 823c 3a20 4dbf 2093 ddbc a06c 9fbe
000003f0: 0dcd a2bd 9b6a c1bb 5dcc bc3e e286 2abd
-0.48481026 -0.37924302 0.0192404 0.03836091 0.0512644 -0.012925055 0.11233813 -0.087798536
-0.01858713 0.21168537 0.02890781 -0.41127363 0.0038817609 0.10878094 -0.2465454 0.07514674
-0.038995225 -0.7515394 0.029745053 0.26757783 -0.04313251 0.23510513 0.24082801 -0.029733831
-0.08421603 0.9167648 0.12254962 -0.23737797 -0.14199282 -0.033798315 -0.08247774 0.21484077
0.09805372 0.24679321 -0.0060377666 0.037611417 -0.39507324 -0.2785771 -0.17671205 0.18295434
-0.08496488 -0.0065104486 -0.012979101 0.064642295 -0.008405002 -0.254306 -0.12602457 -0.045145836
-0.42902648 -0.1206337 -0.1467657 -0.009249925 -0.6909392 -0.8954759 -0.048918813 -0.49055254
-0.23666063 -0.7115514 0.00598852 -0.020246452 0.28775024 0.21015698 0.2462423 0.09483766
-0.398275 0.019587237 0.23665023 -0.42167145 0.14458972 0.21000753 -0.11358386 -0.14150628
0.79484814 0.20645238 0.009357374 -0.10342306 -0.07672693 0.108001135 0.44354707 -0.74645525
-0.16460057 0.15272996 -0.028702844 -0.090155765 -0.016873779 -0.46823415 0.027560268 -0.014199192
0.0055320985 -0.20496498 -0.011415763 -0.0051550786 -0.069946736 0.05008165 -0.080698185 -0.49843317
-0.11624588 -0.4729122 -0.053951938 -0.030708428 -0.42365083 0.024762386 -0.0043829232 0.08490753
0.02486108 -0.11221294 -0.24223872 -0.56722516 0.14217159 -1.7787268 -0.31919536 0.08671362
0.04234768 0.2209377 -0.83004516 -0.54690117 -0.24019454 0.3083273 -0.30978557 -0.009768236
0.048053693 0.24332392 0.0037502754 0.03381309 -0.40834013 0.0035889 0.019658146 0.3691117
-0.02584207 -0.0032129497 0.22477409 -0.098851256 0.18219666 -0.07678949 -0.4384984 -0.4155899
-0.36959153 -0.24256255 -0.052823734 -0.026631806 -0.023276199 -0.043040883 -0.21550755 0.21672246
-0.0024079406 -0.17792457 -0.47058836 0.24840395 0.26618487 -0.13217854 0.27883396 0.25213242
-0.51492596 0.035836555 0.18099177 -0.26255655 -0.0010046873 -0.08626713 -0.46494547 -0.4649496
0.3408184 0.14550711 -0.0013675326 -0.3107104 0.0026283197 0.050224192 -0.1848281 -0.40241572
0.048299897 -0.11640575 -0.037931226 0.13647558 -0.96394193 -0.42220187 0.19398384 0.24177262
-0.23664252 0.049038995 -0.0774945 -0.24246721 0.016539264 0.03772931 -0.50954956 -0.4336939
-0.43977037 -0.026163688 -0.3932203 -0.0025987367 0.03302113 0.07891618 0.050674945 -0.2651241
-0.105313174 -0.12323345 0.23801114 -0.39368534 0.22170755 -0.30294162 -0.42062157 -0.049053166
0.119098626 -0.24641505 -0.9443017 -0.0006981442 0.27011174 0.00040747438 -0.32726005 -0.054990634
0.051592533 -0.4969738 -0.31965426 -0.018437255 -0.90560836 0.22143388 -0.029031254 -0.011086411
-0.40781868 0.082459636 0.11972298 -0.26009548 0.1206911 0.012121121 -0.5929494 -0.035221923
-1.5308208 -0.003294114 -1.6619464 0.43238795 0.16185309 -0.040768415 -0.13129207 0.5368048
-0.05912642 -0.6149962 0.21746454 -0.016550966 -0.038091857 -0.05723339 0.011185331 0.03199243
-0.0076293973 -0.018787134 -0.11882696 0.021628207 -0.4895919 -0.26825255 -0.11914338 -0.3828216
0.015981177 -0.801273 -0.027047694 -0.31137562 -0.079492666 -0.005902601 0.36874667 -0.04163254

fc4.bias f4 [2]
00000000: e6b3 53bd 539a 74bd
-0.051685236 -0.059717488
