evaluation/saved_model/ddpg.pt (torch_old, 553258 bytes, 8 tensors)

fc1.weight f4 [256, 22]
000000 80 88 c8 3d 6b c7 d7 3d b8 b8 cb 3b af 79 99 be
       0.0979166 0.10536083 0.0062170886 -0.2997565
000010 12 d0 d0 bd b5 d7 ed 3d 6d ce 8f be 05 d9 80 3d
       -0.10195936 0.116134085 -0.28087178 0.06291393
000020 42 03 f4 bd 1e 52 41 bd 95 a3 5d be ea 84 d6 3c
       -0.11914684 -0.047197454 -0.21644433 0.026186425
000030 8e c8 0b be fd 28 13 be d0 dc 1b be f8 b0 1c 3d
       -0.13650724 -0.14371105 -0.15220952 0.038254708
000040 ce 89 b1 bd dc fe 92 be a5 1b 0b be f2 30 5c bd
       -0.08668862 -0.28710067 -0.13584764 -0.053757615
000050 e3 66 18 3d 85 e2 e1 3d 2c f4 e7 ba f3 36 90 bc
       0.037207495 0.11029533 -0.001769667 -0.017604327
000060 76 74 44 be 22 f9 65 3e 46 23 67 be bf 0e 30 3e
       -0.19185051 0.22458318 -0.2257205 0.17193125
000070 ee 10 b7 bd 3d c1 2d be 91 57 3c be 7b 6b 94 3d
       -0.08938776 -0.16968246 -0.18392779 0.07247063
000080 da b9 3b 3e 46 da 0d 3e 2f 32 0d 3e e8 4c 54 3d
       0.18332615 0.13852796 0.13788675 0.051831156
000090 e9 2f 4f be 11 36 06 be 1d 7b 99 be 60 b4 0c bd
       -0.2023312 -0.13106562 -0.2997674 -0.034351707
0000a0 59 7f 24 bc 0b 94 38 3d b4 df bb 3d d9 62 15 3e
       -0.010040128 0.04506306 0.09173527 0.14588489
0000b0 81 e0 91 be 89 7a 3e bd 70 d4 a7 bc 55 45 a3 3d
       -0.28491595 -0.046503577 -0.02048704 0.079722084
0000c0 5a 31 42 be f9 94 87 3d c7 f6 33 3d fa af 00 be
       -0.18964139 0.06620211 0.043936517 -0.1256713
0000d0 8b 35 06 be 43 87 82 bc f6 3e 56 be 16 43 c1 bd
       -0.13106363 -0.015933638 -0.20922455 -0.09436624
0000e0 c6 f5 02 be 5a 13 57 3d de 32 05 be b5 0f 5a 3d
       -0.12789068 0.05250869 -0.13007686 0.053237636
0000f0 00 dd 34 3e 0b 7b b3 3c 90 5a e6 bd ac 30 5e 3c
       0.1766243 0.021909257 -0.11247742 0.013561409
000100 a1 ca a1 3d 98 8a f6 3b ee 9b 18 3e 17 70 47 3e
       0.078999765 0.007523846 0.14903232 0.19476353
000110 8a 23 5d bb 9c ec ac 3e 30 e5 4c be ab 8b 83 bc
       -0.0033743107 0.3377427 -0.20009303 -0.01605781
000120 75 de ca bd 12 a6 92 3d c3 2d db 3d 81 db 37 3d
       -0.099057116 0.07160582 0.10702088 0.04488707
000130 11 3b ec bd f9 a1 0b 3e a8 42 f2 3d 24 79 a7 bd
       -0.115347035 0.13636006 0.1182912 -0.081774026
000140 93 85 31 be c6 72 8f be f3 31 54 be 0e c3 06 3e
       -0.17336111 -0.28017253 -0.20722179 0.13160345
000150 a9 b7 da bb c0 07 31 3e 73 8d bb 3c 90 9d 7f 3e
       -0.006674726 0.17288113 0.022894597 0.24962449
000160 12 37 3e 3e 7b d5 29 3f 59 00 bd 3d be de 4a be
       0.18575695 0.6634137 0.09228582 -0.19811532
000170 13 d0 1e 3e a8 d4 80 3c 35 91 e3 3d a5 61 39 3e
       0.15509062 0.015726402 0.111116804 0.18103655
000180 f9 ea eb bd 7e 80 7e bd e5 9d 3f be b7 4c 23 be
       -0.11519427 -0.06213426 -0.18712576 -0.15947233
000190 7e eb 80 bd 0d f5 07 be e0 45 80 bd 6f 33 ca bd
       -0.062949166 -0.13277073 -0.062633276 -0.098730914
0001a0 75 14 06 3d 36 3e 32 be 54 97 2d be 7a bb d9 3d
       0.032734353 -0.17406544 -0.16952258 0.106314614
0001b0 c6 d6 a7 3d 9b 5a 98 bd e1 3a 51 3d e3 2e 21 bf
       0.08195262 -0.074391566 0.051081542 -0.6296217
0001c0 28 37 9b bd 15 9f 75 be 48 62 17 be c8 33 d6 3c
       -0.075788796 -0.23986466 -0.14783585 0.026147738
0001d0 07 a4 77 3e d6 0c e7 3b f9 ce 18 3e 54 12 51 3e
       0.24183665 0.0070510907 0.14922704 0.20417148
0001e0 b3 5d 41 3e 9e 87 88 3e 20 f6 e8 3b af d0 23 be
       0.188834 0.26665968 0.0071094185 -0.15997575
0001f0 72 98 87 bd 15 5c 36 bd e7 b4 37 3d b0 2c cf bd
       -0.066208735 -0.04452141 0.044850256 -0.10115945
000200 6a e9 6f bb 32 a7 2f be e8 c6 97 bc 57 3d 8f 3d
       -0.0036607631 -0.17153624 -0.018527463 0.069941215
000210 36 db 51 be f5 48 40 bd fd e2 03 3e 41 ac 61 3d
       -0.20493779 -0.046944577 0.12879558 0.055095915
000220 bd 1f 04 be 6b 77 8a bd 72 ad a1 bd 20 5a cf bd
       -0.12902732 -0.067610584 -0.0789441 -0.10124612
000230 49 a2 b5 3d 54 05 12 bd 65 d3 ac 3e e0 77 71 3e
       0.08868844 -0.035649613 0.3375503 0.23580885
000240 38 1e 84 3e 07 2e 6e 3e 5e 3d 4d 3e e2 2d c3 bd
       0.25804305 0.23259746 0.20042941 -0.09530236
000250 78 fc c9 bd fd b5 8e 3d e7 df f8 3d d0 10 aa 3d
       -0.09862608 0.06968305 0.12152081 0.08303988
000260 0a 52 5c bd 3d cf 78 3e 48 a7 73 be c3 89 6e be
       -0.053789176 0.24297805 -0.23794281 -0.2329474
000270 6c e3 da 3d d2 2b 6f 3c dd c5 29 3d 04 f2 95 bc
       0.106879085 0.01459785 0.041448463 -0.018303879
000280 20 1f 8a 3c 6c 75 14 be 0c 70 65 3d 4f 64 62 bd
       0.016860545 -0.14497918 0.05601506 -0.055271443
000290 af 45 4e be 32 85 4b bd 4d 55 62 3e 06 18 06 3e
       -0.2014377 -0.04968757 0.22102852 0.13095102
0002a0 c1 49 ba 3d ea 0f a0 bd ac cc 78 3e 8d 17 8e 3e
       0.09096099 -0.07815535 0.24296826 0.27752343
0002b0 3c 80 57 3c b4 fe ea bd 62 e9 1c be d4 c1 ff 3d
       0.013153132 -0.11474362 -0.15323403 0.12488142
0002c0 99 bc e3 3e 35 bd 5a bd b4 46 10 3e e6 ec 2b 3e
       0.44479826 -0.053403098 0.14089471 0.16789588
0002d0 52 93 f0 3c 29 e9 ab bc 36 2b 8a 3d 2a 13 85 be
       0.029367123 -0.020985203 0.06746523 -0.25991184
0002e0 ab 9f d3 3b 5d 8f 8f 3c d4 39 2c be ab a0 8c bd
       0.006458243 0.017524416 -0.16818935 -0.068665825
0002f0 7e ed a8 3d f0 18 d4 bd 0b 0f 8d be 9a f2 2f be
       0.08248423 -0.10356319 -0.2755054 -0.17182389
000300 b3 11 af be c3 b4 0b 3c 5e 49 35 3e 8b fe 34 3e
       -0.3419319 0.008526984 0.17703769 0.17675225
000310 b6 15 85 bd a7 56 f1 3d 5e 88 90 be 22 85 3b 3e
       -0.06498282 0.11784106 -0.2822904 0.18312505
000320 8a 2d dd bd 6a 79 fb be 09 92 ec bc 53 2e 17 3e
       -0.107997015 -0.4911607 -0.028878229 0.14763765
000330 c4 7d 93 3e a3 3a 02 3e 3f 0d 47 3e 2a d3 39 be
       0.2880689 0.1271768 0.19438647 -0.18146959
000340 82 b5 7a bd 86 10 2f be 5f 5f bd bd 37 9a 0f bd
       -0.061208256 -0.17096147 -0.09246706 -0.03505918
000350 d0 5c 26 3e 35 41 bb 3d b3 21 14 3e 6f ca bd 3d
       0.16246343 0.09143297 0.1446598 0.09267127
000360 77 e3 3f 3d e4 10 0d be d2 fc 88 3d 81 6c 82 bd
       0.046847787 -0.13775975 0.06688847 -0.06368352
000370 c0 18 d2 be 5b fe c5 bd 35 ce d5 3c 9b e9 21 3e
       -0.41034508 -0.09667655 0.026099304 0.1581177
000380 5c d9 43 3d 89 d3 2a 3e 62 5f 24 3c a1 ae bb bd
       0.047814712 0.16682257 0.010032507 -0.09164167
000390 35 5c a3 3c e6 24 7f be 10 7e 26 be e9 43 fe 3d
       0.019941429 -0.2491642 -0.16259027 0.124152966
0003a0 40 4c e9 3d c7 e6 63 3c 01 c1 eb 3d 32 b6 96 3d
       0.11391497 0.013910002 0.11511422 0.0735897
0003b0 a0 76 fe bd 2a c1 62 be 98 37 0f 3e 4c 4b 1a be
       -0.1242497 -0.22143999 0.13986051 -0.15067786
0003c0 c2 7c b0 3d fa be 61 3e 50 72 9f 3e 80 36 b1 3e
       0.08617546 0.22045508 0.311419 0.34611893
0003d0 ff dc dc 3c cb 36 f1 bd 7d 61 d4 bd 00 29 19 3e
       0.026960848 -0.11778029 -0.10370157 0.14957047
0003e0 d9 dd 7d bd 97 e9 ba 3d d9 86 d5 3d d5 aa 86 be
       -0.06197915 0.09126585 0.10426111 -0.2630221
0003f0 57 2b 98 3d 07 95 d3 bd 5c 54 cc 3d 34 85 5c 3e
       0.074301414 -0.10331159 0.09977028 0.21535188

fc1.bias f4 [256]
000000 c6 47 82 be 5f 13 a1 bd e3 44 30 be bd 8e 1a 3d
       -0.25445384 -0.07865023 -0.17213778 0.037733782
000010 ee f4 9c 3c 0f bb 91 3e d9 fd 03 be e7 1f 23 be
       0.01915976 0.28463027 -0.12889804 -0.15930139
000020 e5 06 a4 bd bb 1b 38 bb 53 eb 27 3e 90 df b1 3d
       -0.080091275 -0.00280927 0.16398363 0.08685219
000030 1b a1 89 3d 28 fc 3a 3d 65 23 86 3d bd f7 4c bd
       0.067201816 0.04565063 0.0654972 -0.05004095
000040 75 29 31 3e a2 23 60 bd 44 fe 5a 3e 7e 7d 47 3e
       0.17300971 -0.054721482 0.21386057 0.19481465
000050 0b e9 8d bd 36 e0 16 3e 9e 90 95 3d 7e 66 48 bd
       -0.06929215 0.14733967 0.07302974 -0.04892587
000060 ef 9b 4a bd 20 3a 32 bc 63 af af bd 52 62 5f 3d
       -0.049465116 -0.010878116 -0.08578374 0.054537125
000070 80 79 2b be ef c3 88 3e c3 a3 97 3d 80 84 7b bd
       -0.16745567 0.26711985 0.07404282 -0.06140566
000080 7c 82 3b be 96 e3 08 be d8 54 61 be c4 30 89 3e
       -0.18311495 -0.13368067 -0.22005022 0.26795018
000090 aa 68 15 bd a4 63 6d bd cc 4a 69 bc 34 e9 ef 3d
       -0.03647677 -0.057956353 -0.014239024 0.11714402
0000a0 a9 fa 0a 3d f2 ce 01 3e c1 f5 72 3d 31 4a eb bd
       0.033930454 0.126766 0.0593164 -0.1148876
0000b0 aa ef 33 3e 57 6a a2 3c 3d 13 12 3c 42 92 3f 3e
       0.17571893 0.019826097 0.00891572 0.18708137
0000c0 9f 65 db 3d 0a a2 08 be 65 1a 3a 3e 4a 5a 3c be
       0.10712742 -0.13343063 0.18174131 -0.18393818
0000d0 c3 aa 15 be 48 7b 3c 3e 3f 05 72 3e 4d 2a 94 3d
       -0.14615922 0.18406403 0.23634814 0.07234631
0000e0 12 ca cf 3d 69 33 2a 3d 97 58 8f 3e b2 30 8e bc
       0.10145964 0.041552935 0.27997276 -0.017357204
0000f0 eb 0a 64 be 6f 80 04 bc ce 7d 74 bd ea 5d 29 be
       -0.2226979 -0.008087262 -0.05969029 -0.16539732
000100 a7 e3 99 3c c4 c7 84 bd 25 99 3e 3e 1c 75 13 be
       0.01878531 -0.06483415 0.18613108 -0.14400142
000110 ee 42 ac 3d e9 42 52 3e 91 c3 20 bd cd df 35 be
       0.08411203 0.20533337 -0.039249007 -0.17761154
000120 b3 74 7d 3e b6 7b 21 3e 71 02 f7 bd ac 0e 64 3e
       0.24751548 0.15769848 -0.120610125 0.22271222
000130 8d ce 9f bc 23 a9 93 3d a8 7a 26 be 3f 8e e9 3b
       -0.01950767 0.07209995 -0.16257727 0.0071275528
000140 72 e4 9a bd 4d 21 9d bd 42 c9 82 bd 6b f6 03 3e
       -0.07563104 -0.07672367 -0.06386043 0.1288697
000150 99 ba 96 bd 62 28 1e be 8b 9e 5c 3e 43 83 78 3e
       -0.073598094 -0.15445092 0.21544854 0.24268822
000160 31 78 1b bd 8d cc 98 bd 2f 33 d1 3c 1e 7b 9d bd
       -0.03795642 -0.0746089 0.025537102 -0.07689498
000170 28 90 a6 3d ca c4 e5 bd 3f a6 07 3e 14 4e 61 bc
       0.081329644 -0.11219175 0.13247012 -0.013751525
000180 a8 db 08 3e ae 0d 8c bd ce 39 0b 3e ba 1b 6b be
       0.13365042 -0.06838547 0.1359627 -0.22959796
000190 1f 90 c9 bd be 74 9d bd 54 5a 36 be f1 20 99 3d
       -0.09841942 -0.076882824 -0.17807895 0.07476986
0001a0 16 77 d2 3d 5f 08 53 3e c2 f0 1a bd 93 81 24 be
       0.1027662 0.20608662 -0.03782726 -0.16065054
0001b0 be 2e c2 3d 22 f0 0d 3e aa 1d 41 3e 6d 3b ab 3d
       0.094815716 0.13861135 0.18858972 0.08360944
0001c0 41 7b 58 3d 11 5f 8f 3e 54 a0 9a bd 79 5f 88 3e
       0.05285192 0.28002217 -0.075501114 0.2663534
0001d0 58 20 a7 bd e9 de d6 bd bf bc 58 bd 74 2f ec bd
       -0.08160466 -0.104917355 -0.052914377 -0.115324885
0001e0 9b c2 22 3e 92 2d 40 3e 29 db 5d 3d 37 9e 4f be
       0.15894549 0.18767384 0.054164086 -0.20275198
0001f0 68 5f bb bd 76 77 5b 3e cf cc 9f bd e0 ed 5d 3d
       -0.09149057 0.2143229 -0.07802736 0.054181933
000200 07 c3 b0 bd 95 32 86 3e a9 bd 94 bc 2a 73 78 bd
       -0.086309485 0.26210466 -0.018156843 -0.060656704
000210 fb 10 ff bd 9b 65 2c 3e ef 70 9d 3d ee cf c2 3d
       -0.12454411 0.16835634 0.07687556 0.09512316
000220 d6 f8 3a 3d bc 4f 92 3e 8c 4b 8b 3d 30 62 39 3e
       0.045647465 0.28576458 0.06801519 0.18103862
000230 fc 50 ea 3d 36 eb 94 3d 43 52 02 bd 72 d8 6b 3e
       0.11441228 0.072714254 -0.031816732 0.23031786
000240 ae 88 f4 3b 35 7d 4d be cd 33 48 3e 33 af ad 3d
       0.0074625826 -0.20067294 0.1955101 0.08480682
000250 eb 5f 06 be 94 1c c3 bd 8f e2 8c 3d 51 0d 18 3e
       -0.13122527 -0.09526935 0.0687915 0.1484883
000260 2c 04 42 bd 0e 17 40 be 7e c7 9d 3d b2 b6 16 3d
       -0.04736726 -0.18758795 0.07704066 0.036795326
000270 89 52 fe bd 4c 44 e8 bd e1 85 ea 3b 74 6a a5 bd
       -0.12418086 -0.113411516 0.007157073 -0.08076945
000280 e1 bf 13 be 10 38 4d 3e 5b e6 11 3e 28 fb b8 bd
       -0.14428665 0.20040917 0.1424803 -0.09032279
000290 2b 2f 3f 3e 71 fe 0e 3d b6 84 9f 3e 11 8f 19 3e
       0.18670337 0.034910623 0.31155938 0.14995982
0002a0 20 e2 b5 3d 90 ae 9e be d5 e1 47 3e 58 20 83 bd
       0.088810205 -0.30992556 0.19519742 -0.064026535
0002b0 4d f4 df bd 58 20 d7 bd 9d 97 2a 3e 6e d9 b8 3c
       -0.109352686 -0.10504216 0.16659398 0.022564616
0002c0 00 fe 92 3d 16 2c 72 bd 72 31 25 3e 67 d4 3c bd
       0.07177353 -0.059124075 0.16132143 -0.046101
0002d0 a6 34 22 3e b4 c1 43 be 22 7a 32 3e 9a 37 12 bd
       0.15840396 -0.1911686 0.17429402 -0.035697557
0002e0 37 d7 72 be 48 50 50 be cc 59 8a bc e5 c1 90 3d
       -0.2371491 -0.20343125 -0.016888522 0.070682324
0002f0 ec 8b ee 3c 52 28 d3 bd b8 fc 0c 3e fd 7d 88 bd
       0.029119454 -0.10310425 0.1376828 -0.06664655
000300 dc dc b6 bc e3 58 ba 3d fc 50 b7 bc 77 6f 9e 3d
       -0.02232211 0.09098985 -0.022377484 0.07736104
000310 cd d0 0e 3e ee cd f2 3c 05 a4 fc 3d 9d 4b ec 3d
       0.13946839 0.02963921 0.12335972 0.115378596
000320 55 c4 2f 3e a1 88 98 3e 46 7e 88 3d 9c 58 76 3c
       0.17164738 0.2979174 0.0666471 0.015035775
000330 b5 2d 4e be f3 aa 5c be 89 dd 83 3d 5f 7b 1e 3e
       -0.20134623 -0.21549587 0.06438739 0.1547675
000340 ed 0a 37 3d 35 2f 97 bd 8a 14 64 3c f2 3f 2c 3e
       0.044688154 -0.07382051 0.0139209125 0.16821268
000350 da 5f a6 3d ab 65 b2 3d ef 6b 8b be 4d 97 f2 bc
       0.08123751 0.08710798 -0.27230784 -0.029613161
000360 5f 20 15 3e b3 54 68 3e fd 35 30 3e 84 23 49 bc
       0.1456313 0.2268856 0.17208095 -0.012276534
000370 a0 2e 6a 3e 75 87 9e 3e a2 b0 34 be e6 96 37 be
       0.22869349 0.3096272 -0.17645505 -0.17928657
000380 c9 ee 23 bd 08 09 e9 bd e1 ca ed bc 20 37 c7 bb
       -0.040022645 -0.11378676 -0.029027404 -0.0060795695
000390 1d c6 e9 3b ad 76 6e 3e 6f ab be bd 2b a1 f1 3d
       0.0071342126 0.23287459 -0.09310042 0.117983185
0003a0 97 de 64 3e 35 cf 5f 3d 76 c7 9c 3c 5e 07 c7 3d
       0.22350536 0.054640967 0.01913808 0.09718202
0003b0 e6 f4 20 3e 50 e5 46 bc d9 fb 93 bb 50 13 a4 3e
       0.15718421 -0.012139633 -0.0045161066 0.32045984
0003c0 b4 44 5e be df a7 13 be 61 86 67 bc ca e7 c6 be
       -0.21705896 -0.14419506 -0.0141311595 -0.38848716
0003d0 30 c2 b2 bd 6b 15 55 3e 84 da 54 3e c2 27 2c 3e
       -0.087284446 0.20808952 0.20786482 0.16812041
0003e0 fa 1f 16 bd 2b ac 4a 3e 19 63 78 3d 25 bc 31 3d
       -0.03665159 0.1979224 0.060641382 0.04339232
0003f0 4c 9e ba bd 85 ad 3b 3e c3 21 37 bc 1e c8 cd bb
       -0.09112224 0.18327911 -0.011177483 -0.0062799593

fc2.weight f4 [256, 256]
000000 08 2c e5 3c 8c 69 7d 3d 88 c8 68 bd 17 fa 6c bd
       0.027975097 0.061868235 -0.056831867 -0.05785569
000010 77 3b 88 3c 0f 6c e7 3c 45 a7 c7 3c 3c 30 74 bd
       0.016629918 0.028249769 0.024371753 -0.059616312
000020 29 d8 97 bb 98 20 9d 3b 69 e2 49 bd 3b 01 5b bc
       -0.0046339226 0.0047951452 -0.049288187 -0.013366993
000030 47 34 35 3d 92 d3 4d bd 55 d4 5b 3d 3e a7 5b bd
       0.04423931 -0.050250597 0.053669292 -0.05362629
000040 8b dd 05 3d a6 a8 12 bd 45 d1 e5 3c ef 1f 63 bc
       0.032681983 -0.035805367 0.028053889 -0.013862594
000050 e4 50 19 3d a8 0b cb bc cf 6b 28 bd 65 34 85 bd
       0.03743066 -0.024785832 -0.04111844 -0.06504134
000060 23 37 2a bd 04 71 cf 3c c2 4f 28 3d 5c c3 bc bc
       -0.04155649 0.025322445 0.041091688 -0.023042373
000070 de 1e 73 bd b0 5a e8 bc 37 99 53 3d 71 fc 33 bd
       -0.05935561 -0.028363556 0.05165979 -0.04394192
000080 6c 0b e2 3c 6b b2 80 bc aa 69 15 bd b6 99 0a 3a
       0.027593337 -0.015710076 -0.036477722 0.0005287187
000090 75 a5 78 bd e0 dc 5a bd a5 ae b9 bc 28 6b 1c bd
       -0.060704667 -0.0534333 -0.022666285 -0.03818813
0000a0 61 98 57 bd 0a 27 bf bb 2e 09 21 bd 43 33 41 bd
       -0.052635554 -0.0058335112 -0.039315395 -0.047168028
0000b0 58 10 07 3c 2a 79 05 bd 9f 97 00 bd 98 d4 55 3a
       0.008243643 -0.032586254 -0.031394597 0.0008156984
0000c0 8a b4 25 bd 83 1c 69 bd 36 07 b7 3c 55 ab fa bc
       -0.04045538 -0.056911957 0.022342306 -0.030599276
0000d0 b2 24 64 3d 56 88 39 3c cc 3c 4a 3c 0c 5e 7b 3b
       0.055699058 0.011324009 0.012343597 0.0038355617
0000e0 50 ff b9 bc 0c be 00 3d 3d 0d 39 3d 0a be 85 bd
       -0.02270475 0.031431243 0.04517864 -0.06530388
0000f0 52 a5 34 bd b4 35 f3 3c 2d 65 3e 3d 39 43 7b 3d
       -0.044102974 0.029688694 0.046483207 0.061343405
000100 ac b8 71 3c 31 bb 80 ba 71 4b 08 bc 20 f4 fb 3b
       0.014753502 -0.0009821412 -0.008318768 0.007689014
000110 0b a3 67 3d f2 b6 14 b9 81 6f 62 3c 0c 75 98 bc
       0.056551974 -0.00014182532 0.01382053 -0.0186105
000120 5d f8 2e bd 6f 6d 4f 3d a0 bc 7c bd ba c9 1e bd
       -0.042717326 0.050641473 -0.061703324 -0.0387666
000130 c2 69 b0 bc 8a e6 6f 3d dc 7d 9a bc 3a fa 03 bd
       -0.021534804 0.05856947 -0.018858843 -0.032221057
000140 31 f0 25 3d f2 ab 28 3c 6d 8c 3b 3c 13 3f 0d 3d
       0.040512268 0.010294901 0.011447054 0.03448398
000150 cb 26 58 bd 6e 56 b0 3c 79 fe 28 3d c6 37 5a 3b
       -0.05277137 0.021525588 0.04125831 0.0033297404
000160 ab f4 45 3d 88 2d 4f bd a0 71 9f bc 18 6c ea 3c
       0.048329037 -0.05058053 -0.01946336 0.028615996
000170 56 c9 93 3b 5a e9 25 bd 99 af 9a 3c d5 aa 0e bd
       0.004510085 -0.040505745 0.01888256 -0.034830887
000180 c8 f4 44 3d 07 02 80 bd 94 3e b1 3b 2a 99 fe bb
       0.048085004 -0.06250387 0.005409071 -0.0077697234
000190 48 08 ce bc 37 15 e3 bb 08 d8 6c 3c 51 11 2c 3c
       -0.025150433 -0.0069300192 0.014455803 0.010502175
0001a0 0a 02 d9 3b aa ef 31 bd e4 11 3a bd a8 48 4b ba
       0.0066225575 -0.043441452 -0.045427218 -0.0007754662
0001b0 2e 43 aa bc 4c a6 2f bc 74 fe 42 3c 14 a3 86 3c
       -0.020783987 -0.010720801 0.011901487 0.016435184
0001c0 b0 66 59 3d 21 10 83 bd 76 88 23 bd cb 7d 6f bd
       0.053076446 -0.06399561 -0.03992506 -0.058469575
0001d0 fb 2e 03 bd 1c 49 2d bd 6d 61 98 39 4e 9d 53 bd
       -0.032027226 -0.04230605 0.00029064287 -0.05166369
0001e0 8b bc 2d 3c 32 da 18 bd 8d 8f 1e 3d 90 71 b5 bc
       0.010604034 -0.037317462 0.03871112 -0.022148877
0001f0 3c 22 95 3c f1 29 a7 bc 54 bf 10 bd 35 70 7e bd
       0.0182048 -0.020405741 -0.035338715 -0.062118728
000200 33 c7 b4 bc 2c a3 4a bc c8 af d0 3c 87 07 b2 bc
       -0.022067642 -0.012368005 0.025474444 -0.021732105
000210 e0 e4 45 3b 4d 2d cc 3b 53 42 17 bd e1 a6 34 3d
       0.0030196235 0.006230986 -0.036928486 0.04410446
000220 65 3f 7a bd 2e fd a2 bc 1f b4 ce bb ae 77 14 3b
       -0.061095614 -0.019896116 -0.006308093 0.0022654342
000230 cc 13 d5 3c f5 98 8d 3c 5a 66 4b 3d 17 73 60 bd
       0.026010416 0.01728485 0.049658157 -0.05479726
000240 a5 30 a3 bc de 15 73 bd f9 fd 22 3d e7 e2 03 3d
       -0.019920656 -0.059347026 0.03979299 0.032198813
000250 37 56 05 3d eb 97 f8 39 84 d5 3c 3d 5f 13 2d bd
       0.032552924 0.00047415434 0.046102062 -0.0422548
000260 a8 26 46 bc af 46 6e bc e6 75 1e bd 28 28 3e bd
       -0.012094177 -0.0145432195 -0.038686655 -0.046425015
000270 d8 d9 5c bd b0 9b 3f bd 39 32 2b bd 96 ce 83 bc
       -0.05391869 -0.046779335 -0.041795943 -0.016089719
000280 88 ec 56 bd bb 59 78 bd 96 50 d4 3b bb 71 4b bc
       -0.052471668 -0.06063245 0.006479333 -0.012417252
000290 b8 02 d7 bc 26 04 6b 3d 07 6c 10 bd 7b 8b 5b bd
       -0.026246414 0.057377003 -0.035259273 -0.053599816
0002a0 0e 49 9c bc 71 6a 6b 3d 38 85 d6 3c 60 8f 04 3d
       -0.019077804 0.057474557 0.02618657 0.032363296
0002b0 40 36 34 bd 78 1f 29 3d c5 04 77 bd 2c c4 70 bd
       -0.04399705 0.041289777 -0.060307283 -0.058780834
0002c0 b0 07 f8 3b 7a 34 45 bc 4f e6 31 3d c9 22 29 bc
       0.007569276 -0.012036437 0.04343253 -0.010323235
0002d0 b3 00 d2 3b 1c a6 e4 3c c0 78 0d bd b2 12 7e 3b
       0.0064087748 0.027911238 -0.034538984 0.0038768467
0002e0 fe d3 93 3c 4c 6d 1f 3d de f7 d6 bc e1 e4 73 bd
       0.018045422 0.038922593 -0.02624124 -0.059544448
0002f0 b9 b2 4e 3c 3d dd 58 bd 4f f4 6d 3c 8e 35 1d bd
       0.012615853 -0.052945364 0.01452358 -0.03838115
000300 9f 2a a9 3b 79 5f 25 3d 9d 01 28 bc ce e6 5e bd
       0.0051625515 0.040374253 -0.010254291 -0.05441933
000310 75 25 41 bd b5 17 87 3c f0 2b bb 3c 21 85 09 3d
       -0.047154862 0.016490797 0.0228481 0.033574227
000320 fe 5b 3f 3c 2e c0 95 bc d0 f1 64 bd e2 7a 6c 3d
       0.0116796475 -0.018280115 -0.055894673 0.057734378
000330 72 85 61 3d 7b b6 6a bd ed b9 68 3d 55 e1 55 3d
       0.055058904 -0.057302933 0.056817938 0.052216846
000340 91 57 7e bd 88 40 a4 bb 7c e1 2e bb fe 6d 1c bd
       -0.06209523 -0.0050125755 -0.0026684692 -0.038190834
000350 6c 44 0f 3d 22 0a f8 3c 26 2e 66 bc 26 90 59 3d
       0.03497736 0.03027827 -0.014049089 0.053115986
000360 47 70 b7 3c 06 9c e9 bc 8f dc 10 3d 30 34 77 bc
       0.022392405 -0.02851678 0.03536659 -0.015088126
000370 e5 11 3c bd e5 e3 94 bc 67 f8 6a bd 44 b2 61 3b
       -0.045915503 -0.018175075 -0.0573658 0.003443853
000380 ff 84 36 bd 24 91 e9 bc 52 b0 7b bd 3c 61 0f ba
       -0.04456043 -0.028511591 -0.06144745 -0.0005469506
000390 a2 37 ec 3c a1 72 46 bc 35 e7 c4 3c b5 98 59 3c
       0.028835122 -0.012112291 0.02403603 0.013281037
0003a0 9e 1a c7 bb 1b 9a 97 3c 4e 5d 65 bd 5a 9c 6d 3d
       -0.006076171 0.0185061 -0.055997185 0.058010437
0003b0 c6 a2 eb 3c a8 d2 27 3d da 6d e3 3c 42 a9 64 3d
       0.02876414 0.04097238 0.027762342 0.05582548
0003c0 0c 46 e0 3c 8b 3f 4e bd cb b9 ca bc 19 d1 ab bc
       0.027377151 -0.050353568 -0.024746796 -0.020973729
0003d0 bd cd cc 3a bf 99 fa bc 3b 79 e0 bc ca 05 0b bd
       0.001562528 -0.03059089 -0.027401557 -0.033941068
0003e0 d0 37 3e bd d7 06 bc bc f5 d3 58 bd d7 28 8a ba
       -0.046439946 -0.02295248 -0.052936513 -0.0010540736
0003f0 c7 39 21 bd 79 59 12 bd e8 18 41 bd e3 ee 3e bd
       -0.03936174 -0.03572986 -0.047142893 -0.04661454

fc2.bias f4 [256]
000000 78 2a 3e 3d 58 f0 0f 3b 08 d1 1d bd 0c ba 10 be
       0.04642722 0.0021963324 -0.038529426 -0.14133471
000010 5e fa 56 3c 5b f8 0a be 4d 56 87 bc 69 79 f3 bc
       0.013121216 -0.13571303 -0.016520644 -0.029720979
000020 4b 18 51 3d 7c d9 c6 3d ca 78 23 bd ca 9f 48 bd
       0.05104856 0.097094506 -0.039910115 -0.04898051
000030 ad b8 fe 3b 11 a0 71 bc f2 8d b7 3c 23 ea fb bb
       0.00777348 -0.014747635 0.022406552 -0.0076878234
000040 86 41 55 bc 63 a6 8e 3d 2b cf 4a 3c 18 82 2f 3d
       -0.01301611 0.069653295 0.012378494 0.042848676
000050 d8 cc 3c 3d d8 e7 da 3c cd 0d 2c 3d 23 a2 89 bd
       0.04609379 0.02672188 0.04200535 -0.06720378
000060 68 f9 4a 3d 90 5f 25 3d de 51 0a bd ff 04 56 bd
       0.04955426 0.04037434 -0.03376948 -0.05225086
000070 c7 fe 42 3c e1 bd 7c 3d 11 8a 86 3d bb 8e 1f bd
       0.011901564 0.06170452 0.06569303 -0.038954478
000080 d0 75 5d 3d 84 0f 86 bd 90 dc 3b bd 6e 3b 49 3d
       0.054067433 -0.06545928 -0.04586464 0.049128942
000090 17 8f 89 bb e7 22 aa 3c 65 37 b1 3c 53 68 5c 3d
       -0.004197966 0.020768596 0.02163286 0.05381043
0000a0 b3 fa 16 3d b8 5d 73 3d 61 c8 9e bd a0 66 9e 3d
       0.03686018 0.05941555 -0.07753063 0.07734418
0000b0 37 6b da 3d 49 cf 41 3d 5a 3b b0 bd 90 e5 46 3d
       0.10664981 0.047316823 -0.086050704 0.04855877
0000c0 11 d4 3f 3c ef 9f 16 be 78 b1 5a 3c 0b 23 57 bd
       0.011708275 -0.14709447 0.013347976 -0.052523654
0000d0 d9 1e 44 bd b0 01 4c bd b1 2c df 3c 3e 6e 7c 3d
       -0.04788098 -0.049806297 0.02724299 0.061628573
0000e0 34 9a 4e bd b1 29 99 3d 82 39 5a 3d 2b d1 bb bc
       -0.05044003 0.07478655 0.0532775 -0.022926887
0000f0 4a 45 e2 bc f8 b0 40 bc e1 d4 61 3d 2d cb 14 3d
       -0.02762093 -0.011760943 0.055134658 0.036326576
000100 77 63 7a bd a3 8f 25 3c 9a e9 90 3c c8 e0 9e bd
       -0.061130013 0.010105046 0.017689515 -0.07757717
000110 ef 8f 90 bc 88 bd 9b 3d 54 cd 0e 3d 97 34 aa bc
       -0.017646758 0.076045096 0.034863785 -0.02077703
000120 b3 35 fc bc e0 e8 00 3d 87 92 76 bd 88 45 a6 3c
       -0.030787325 0.031472087 -0.060198333 0.020296827
000130 11 31 75 3d 22 fa fe 3c 4d 2d f2 3c a7 58 e5 3d
       0.059861246 0.031125132 0.029562617 0.1119855
000140 a5 52 f4 bc 70 60 60 bd f0 1d 3b bd 14 52 21 bd
       -0.029824564 -0.05477947 -0.045682847 -0.039384916
000150 77 9e 2a 3d e1 21 39 3d 49 5f e1 3b a1 65 9e bc
       0.04165503 0.045198325 0.006877814 -0.01933557
000160 86 88 c0 3c 8d 38 cb bd 59 84 f0 bd c0 cf bd bc
       0.0235026 -0.099228956 -0.11743993 -0.023170352
000170 2a 51 a9 bd da 88 ea bd ce 21 28 bd 3c 39 1d 3d
       -0.08267434 -0.114518836 -0.041047864 0.03838466
000180 9f 2d 94 bc e4 a7 0a bc fc 01 92 bc 97 b0 0b 3d
       -0.01808816 -0.00846288 -0.017823212 0.034103956
000190 5d bc 3d bd d3 c3 ed 3c 94 c3 2d bd f0 0b 31 bd
       -0.046322215 0.02902404 -0.042422846 -0.043224275
0001a0 20 b5 74 bd 11 d9 3e 3c 45 c3 c1 bc 35 45 41 bd
       -0.059743047 0.011648432 -0.023652682 -0.04718514
0001b0 35 17 a0 3d 6b c9 35 bd ff 18 01 3d ea 61 42 3d
       0.078169264 -0.04438154 0.03151798 0.04745666
0001c0 95 d8 43 3d 74 45 83 bc 34 ef fd bb 88 6e ff bb
       0.04781397 -0.016024329 -0.0077494625 -0.007795159
0001d0 ae fe 9b bc da 3e 2c 3d db a3 6b bd 83 eb 78 bd
       -0.01904234 0.042052127 -0.05752931 -0.060771476
0001e0 82 81 76 3d 54 8b b1 bc 50 ab 6b 3d 5b 9f a7 3d
       0.060182102 -0.021672882 0.057536423 0.081846915
0001f0 46 8a 26 3d dd 2d 8f bd a6 66 30 bd 4e 4d b4 bc
       0.04065921 -0.069911696 -0.043066643 -0.022009518
000200 88 df fe 3a ad 99 32 bd 48 67 9b 3d 89 3a 1a 3d
       0.001944528 -0.043603588 0.07588059 0.03765348
000210 18 b7 36 3d 92 36 d3 3b 66 63 8c 3b 13 9a e5 bc
       0.044608206 0.0064457143 0.00428431 -0.02802757
000220 88 1e ad bc b8 81 16 bd da 7b 08 bd 9c 2a e1 bd
       -0.021132722 -0.036744803 -0.03332124 -0.10994455
000230 45 4e 56 3d aa 50 e3 bc 50 92 b6 bd 67 ef 45 3d
       0.052320737 -0.027748425 -0.08914626 0.048324015
000240 b9 f9 02 bd 64 26 12 bd 01 6c 10 3d b1 c9 03 bd
       -0.031976435 -0.035681143 0.03525925 -0.03217477
000250 f3 c2 30 bd ac af 1f bd 02 f4 24 3d 26 5a 16 3c
       -0.043154668 -0.038985893 0.040271766 0.0091767665
000260 f7 79 3c bd ea 88 26 3d f4 0e a6 bc 6f 35 8d bc
       -0.046014752 0.040657915 -0.020270802 -0.017237393
000270 59 50 c3 3d fe e4 87 3b b5 28 65 3d 1e 01 69 3b
       0.095368095 0.004147171 0.055947024 0.0035553644
000280 13 2f 72 3b 30 32 91 3c d3 32 50 3d d7 31 24 3a
       0.0036954328 0.017724127 0.05082972 0.000626353
000290 07 24 02 be 94 74 27 bc dd fd 0d 3c 3c d2 da bd
       -0.12709056 -0.0102206655 0.008666483 -0.1068463
0002a0 f8 c0 0e bd f2 c8 be bc c0 78 e7 3c 46 3c de bd
       -0.034851998 -0.023289178 0.02825582 -0.1085134
0002b0 db 1c 56 bd 5c 06 86 bb f5 a2 e2 bc 79 35 bc bd
       -0.052273612 -0.0040901136 -0.027665595 -0.091898866
0002c0 c1 42 6d 3d ca 3d 2f 3c a9 fa a8 bc 9c 19 6e bd
       0.05792499 0.010695884 -0.020627337 -0.05812989
0002d0 ca 12 4b 3c 97 97 8c bc 3d 64 9d 3d 20 5a bf bc
       0.012394616 -0.017162127 0.076851346 -0.023358405
0002e0 e5 42 17 3d c9 b2 a5 3d a3 2d e6 bc 57 df fd 3c
       0.03692903 0.08090741 -0.028097933 0.030990286
0002f0 4b 2c 17 bd 28 3c 58 bc 68 03 e5 3c 88 62 75 bb
       -0.036907475 -0.013197936 0.027955726 -0.0037442762
000300 9b 36 38 3d ab 85 8e bd 6d 64 bd bc 6b 82 04 bd
       0.04497395 -0.06959089 -0.023119176 -0.03235094
000310 a6 5e 1c 3d f8 e5 46 3c d7 6c c3 b9 ba 78 09 3d
       0.0381762 0.01213979 -0.0003727439 0.0335624
000320 de 7a 77 3d 68 c6 f3 bc 45 b9 96 bc a4 af f4 3c
       0.06041991 -0.029757693 -0.01839889 0.029868908
000330 db d8 7e bc 3c d6 2d 3d 9b 9a 35 3b 23 c5 3e 3d
       -0.015554632 0.042440638 0.002771056 0.046574723
000340 de 9b 9b 3c b9 48 05 3d 15 64 b9 bd 50 51 63 3d
       0.018995222 0.032540057 -0.09052292 0.055497468
000350 c6 3b 3f 3d 01 c3 46 3d 6e 3b 86 3d ce 7a ee bb
       0.046687864 0.048525814 0.06554304 -0.007277823
000360 df f4 8f bd 34 0f 4e bd 86 9d 04 bd 33 30 a6 3d
       -0.07029127 -0.050307468 -0.03237679 0.08114662
000370 47 1e 02 3d 2e f3 0c 3d ee c3 e2 3c 9c e8 f8 bc
       0.031767156 0.0344116 0.027681317 -0.030384354
000380 86 a1 4b bc 3c 5f 17 bd f9 0b e4 bd 30 49 ef 3c
       -0.012428647 -0.036956057 -0.11135096 0.029209703
000390 bb 0a 1a bb 7e a6 ce 3d 4d 63 6f bd 1e e4 8b 3c
       -0.002350493 0.100903496 -0.05844431 0.017076548
0003a0 9d b1 7b 3c 16 69 22 3d 66 d4 81 3c b6 0a 62 3b
       0.0153621705 0.039651 0.01584835 0.0034491247
0003b0 36 6c ed bd d5 3c 60 3d ce 27 4d bd 52 f4 f5 bd
       -0.11592905 0.054745514 -0.05008679 -0.12009491
0003c0 ab 69 80 bd bb e0 25 bd 3a 0a 2b 3c 33 83 04 bc
       -0.062701546 -0.040497523 0.01043945 -0.008087921
0003d0 e8 45 f9 bc 30 35 e6 3c a0 94 ef bc 52 72 09 3d
       -0.030428842 0.028101534 -0.029245675 0.03355629
0003e0 c9 df 6f bd 49 7e 77 3d fe d3 a8 bb 90 1a 76 3d
       -0.058563028 0.06042317 -0.0051522246 0.060083926
0003f0 8c 1e 6e 38 c6 14 ea bc 7d 99 d7 bc b9 cf 2b 3c
       5.677207e-05 -0.028574359 -0.026318306 0.010486537

fc3.weight f4 [256, 256]
000000 10 8f 1c 3d 78 cc b2 3c a9 8b ab be 48 07 f4 3c
       0.038222373 0.021826014 -0.3350499 0.029788628
000010 ba 16 78 3c ac 1b 0f 3e f2 78 10 3c e5 ea d0 bc
       0.015142137 0.139754 0.008817898 -0.025502631
000020 d2 62 2e bc 68 d3 f8 bc 7a 6b b4 3d e8 a1 d4 3c
       -0.010643678 -0.030374244 0.08809562 0.02595611
000030 6c fe a2 3c a2 29 87 be 45 a6 41 3d 83 c4 b8 b8
       0.019896708 -0.2639895 0.047277708 -8.810407e-05
000040 15 d5 72 bd f1 28 a2 3d df 1b 00 bb ae dd 7e 3e
       -0.059285242 0.07917965 -0.0019547862 0.24889252
000050 0a d5 e9 bc 95 38 97 3c 0b 56 18 3e 6a c4 07 bd
       -0.028543968 0.018459598 0.14876573 -0.0331463
000060 12 90 21 3d e9 e2 ca be 6c 86 d2 3d 5d 8d 05 3c
       0.039444037 -0.39626244 0.10279545 0.008151379
000070 85 c1 65 3e ea 53 9c 3d 07 be 17 bd d6 dc 6c bd
       0.22437103 0.07633193 -0.03704646 -0.057827793
000080 ac 9b 56 3c 31 0f 2e bd bc 34 75 bc 2d 25 4c bd
       0.0130986385 -0.042494956 -0.014966186 -0.04984014
000090 06 d2 6f bd 59 af 71 3d 82 62 ce 3d 84 65 e8 bc
       -0.058549903 0.059005115 0.100773826 -0.028368719
0000a0 ab ab f6 bc a8 74 0a bd f4 db 1d bd 4e 6f a0 3d
       -0.030111155 -0.03380266 -0.03853984 0.0783373
0000b0 33 a2 76 3d c5 6e 8a bc 9a c3 c4 be 2e f4 e7 3c
       0.06021328 -0.016898522 -0.38430482 0.028314676
0000c0 8a 3c 4d bc 88 e7 d3 3d bc 2c 87 bc b4 bf 92 3d
       -0.012526641 0.103468955 -0.016500823 0.07165471
0000d0 39 3b 24 bd 6d bb 01 bf fe 26 40 3e 82 80 4c 3e
       -0.04009554 -0.50676614 0.18764874 0.19970897
0000e0 d8 8d c0 3c 71 6b 45 3d 71 ea de bc d5 ce 68 3d
       0.023505136 0.048198167 -0.0272114 0.056837875
0000f0 1b 59 fd 3c 65 b6 82 3c 64 08 47 be 80 94 bb 3d
       0.030926278 0.015956113 -0.19436795 0.091591835
000100 54 9d 3b be 58 60 45 bd a4 87 61 bd 29 b6 ce 3d
       -0.18321735 -0.048187584 -0.055060998 0.10093338
000110 02 c2 e1 bc a7 74 81 3c a2 7e 4b 3d d1 07 d5 3c
       -0.02755833 0.015802694 0.049681313 0.026004704
000120 ab 8d 3f bd 9b b0 9a 3d bb be 3a 3c 8e 13 01 bc
       -0.046765964 0.07553216 0.011398013 -0.007878197
000130 d4 c4 92 3b 7a 36 14 3d 71 86 59 bd 18 a3 d2 3d
       0.00447903 0.036184765 -0.05310673 0.10285014
000140 fc d5 e2 bd c9 b1 5f 3d 47 fe 9b 3e a4 35 b2 3c
       -0.110759705 0.05461291 0.30467436 0.021754093
000150 74 7d 62 bc 3c 1e 36 3d e8 3f 1a be d1 e4 38 3e
       -0.013823856 0.044462427 -0.15063441 0.18056037
000160 67 0c 71 3e c0 7a 66 bd 5c 0d 0d bf 88 64 9e be
       0.23539887 -0.056269407 -0.5509851 -0.30936074
000170 98 c4 fb 3e 64 ea c4 be 4c 9e 06 39 98 cd 20 3e
       0.49173427 -0.38460076 0.00012838206 0.15703428
000180 d5 1e 91 3d b2 c7 05 bd 07 a4 17 3e 99 55 9d 3d
       0.07085959 -0.032661147 0.14808665 0.07682342
000190 a2 70 ce be 5a 46 69 3c c0 e8 ba be 38 ce bf bc
       -0.40320307 0.0142379645 -0.365057 -0.023413762
0001a0 15 47 34 bc da c3 6d 3d 1b f3 c2 ba e5 18 0b bf
       -0.011003275 0.058048107 -0.0014873476 -0.5433486
0001b0 b1 80 cb 3d b8 9d 10 3e 6b b7 f5 bd 6f f4 16 bc
       0.09936655 0.14122665 -0.11997875 -0.009213551
0001c0 4d 8f d9 3d 5c 2f b8 3d f7 a8 f4 bd 97 b2 d3 be
       0.106230356 0.08993408 -0.1194629 -0.4134719
0001d0 69 c5 7e 3c 3f 4b ff bd eb f5 54 be 10 18 04 3e
       0.015549996 -0.12465524 -0.20796935 0.12899804
0001e0 e0 3d c9 3c 65 c2 f6 3c 6b f7 9c 3d c5 cc e6 3c
       0.024565637 0.030121991 0.07664379 0.028173814
0001f0 94 b7 1a 3d 6c d8 e2 be a4 25 31 3d 14 db 2d 3f
       0.03777273 -0.44305742 0.043248788 0.6791241
000200 03 a7 56 3d 02 12 10 3d 8c 65 a7 3c 59 df 01 bd
       0.05240537 0.035173424 0.020434164 -0.03170714
000210 86 b5 cc 3d 82 5a 1f 3e 6c 26 de 3d 6f 1e 78 3e
       0.0999556 0.1556187 0.10847172 0.2423036
000220 2b 07 88 3b 34 c2 74 3d 37 97 0b 3c 5c 6f 96 be
       0.004151245 0.05975552 0.008519939 -0.29381835
000230 bd 54 9b 3c 23 65 0f 3e 2e 42 a5 be 01 83 81 be
       0.018961305 0.14003424 -0.32277054 -0.2529526
000240 41 21 9e 3c 75 45 3c bd 4a 19 e8 3d a6 3a 7a bd
       0.019302966 -0.045964677 0.113329485 -0.061091088
000250 92 06 2e be 50 c5 08 3e 4c 44 21 3d a3 c3 74 3e
       -0.16994694 0.13356519 0.039371774 0.23902754
000260 8c 0c 3c bc 4b ad 07 3e 26 97 47 3e 09 de c6 3c
       -0.011477601 0.132497 0.19491252 0.024275796
000270 cf ff 0e 3b e3 dd 3c bc 41 05 07 3e 34 6e 67 3d
       0.0021819954 -0.011527511 0.13185598 0.056501582
000280 ac 49 69 bc 1f a3 f0 3c 0f 37 7d 3d d4 4f 8a 3d
       -0.014238756 0.029374657 0.061820086 0.06753507
000290 41 be e2 be c3 3d 05 3c 6b 0c 67 bd 13 0a af be
       -0.44285777 0.008132401 -0.056408327 -0.34187374
0002a0 21 4a da bd 5e 6d 4e be 7c 7d 47 3e 18 93 ec be
       -0.1065867 -0.20158908 0.19481462 -0.46205974
0002b0 17 91 ec 3d a7 c3 0e bf de 78 a9 3d 99 10 48 3e
       0.11551111 -0.5576729 0.08275007 0.19537582
0002c0 bb 0a fa 3c 9a a0 0b 3e 80 b2 dd be fb 11 b2 be
       0.030522695 0.13635483 -0.43300247 -0.34779343
0002d0 53 c4 9a bd 43 a9 fa 3d fd 22 93 3c f0 46 2e bc
       -0.07556977 0.12239315 0.01796102 -0.01063703
0002e0 de e3 09 bc 74 96 73 3d e9 3a 50 3d 9b 2f 3e bc
       -0.008416144 0.059469655 0.05083743 -0.01160803
0002f0 70 d5 81 be 67 f3 f1 3d 6e fb 59 3d a6 71 a8 be
       -0.25358152 0.118140034 0.053218298 -0.32899207
000300 9a 77 3c bd 86 c3 5f 3d b7 8b aa 3d 2b 9b ee 3c
       -0.0460125 0.054629825 0.0832743 0.029126724
000310 f9 60 a1 bc ab b3 9f 3d 67 4c 45 3a e2 73 31 be
       -0.01969956 0.07797941 0.00075263384 -0.17329362
000320 13 bd de 3d 01 98 84 3d fa 7f 23 3d ea 99 be 3a
       0.10875907 0.06474305 0.03991697 0.001454172
000330 1b 9a 41 bd 0b 53 48 3e 87 cd 06 3d 9a 8e 3f be
       -0.047266107 0.19562928 0.03291085 -0.18706742
000340 41 ec 83 bd c8 7a 27 3e 4a f8 a8 be 08 76 4f be
       -0.06441546 0.16355431 -0.3300193 -0.20259869
000350 bb 65 33 be 1e 7a 8c 3d 2c 46 0d be 31 20 af be
       -0.17519276 0.068592295 -0.137963 -0.34204248
000360 01 cb fa 3d b6 c4 03 bf 3c e4 f3 be a6 7a 31 3d
       0.12245751 -0.5147203 -0.47635067 0.043329857
000370 e5 aa 99 be 2c 18 76 3d ea fc dc 3d b4 d7 d9 be
       -0.30013195 0.060081646 0.10790427 -0.4254738
000380 dc bf 4f 3e 96 57 95 be 5a 2b ec be fb 6e 89 bb
       0.20288032 -0.29168385 -0.46126825 -0.004194138
000390 c9 a4 5d be de e7 b5 3d 3a d8 38 bb 1e 38 c4 bd
       -0.21644892 0.08882116 -0.0028205053 -0.09581016
0003a0 a9 2e 24 be b2 80 83 bd df 16 aa bc 56 ed ab bd
       -0.16033424 -0.06421031 -0.020762859 -0.083948776
0003b0 21 3a 90 bd bf 75 84 3d fb 5f f1 bd 1b b7 8a be
       -0.07042337 0.06467771 -0.11785885 -0.27092823
0003c0 d9 0e 12 3d bc 15 32 be 57 38 3b 3e 05 fc 11 be
       0.03565869 -0.17391104 0.1828321 -0.14256294
0003d0 84 26 0d bf c5 4d 37 3d b5 0a 65 3d 6d f9 75 3c
       -0.55136895 0.0447519 0.055918414 0.015013081
0003e0 50 69 c1 be fb b5 e3 3d df 9e f0 3c e7 49 18 3c
       -0.3777566 0.111186944 0.02937263 0.009294963
0003f0 f1 d1 eb bd 56 cd f9 bc fa 8c 5b bc 56 64 f1 bb
       -0.115146525 -0.03049342 -0.013400311 -0.0073666973

fc3.bias f4 [256]
000000 2c 92 cb 3c 93 fc 38 bd b2 20 7a 3d 21 cd 17 bd
       0.024849974 -0.04516275 0.061066337 -0.03706086
000010 8b 9d 97 bb 7a 0c fb 3b 36 0f 8a bd d7 55 f2 3c
       -0.004626935 0.0076613994 -0.067411825 0.029581947
000020 aa 35 c5 bd 05 b9 90 3d 22 2d dc ba ae 88 3b bd
       -0.09629376 0.0706654 -0.0016798119 -0.045784645
000030 df 0e 55 bd 9f 10 86 3d 49 5c de bc db 80 2d bd
       -0.052016135 0.06546139 -0.027143614 -0.042359214
000040 1e fe 26 bc a3 e6 6b 3d c2 2f 95 3b 65 97 da bc
       -0.010192422 0.057593 0.0045528123 -0.026683519
000050 9d 29 ee bc 77 7e 96 3d 65 e8 2f bd cf 50 80 bd
       -0.029072577 0.0734834 -0.042946238 -0.06265413
000060 ec 3d 17 bd ae 7e 32 3d e9 c6 2c 3d 9c 91 b5 bb
       -0.036924288 0.043577842 0.042181883 -0.0055410396
000070 5e d3 7b bd 0c 10 56 bb 04 9b 9f bd 7d 00 23 bc
       -0.061480872 -0.0032663373 -0.07793239 -0.009948847
000080 06 da b5 bb d1 5c ba bd 07 36 5a 3d 51 49 0f 3d
       -0.005549672 -0.090997346 0.05327418 0.03498203
000090 b2 fd 0b bc 33 73 41 bd fa 37 59 bd 60 68 d2 bd
       -0.008544372 -0.047229003 -0.0530319 -0.10273814
0000a0 8b d0 63 3d 72 88 bf bc 31 9c 82 bc fb 3a 40 bd
       0.055618804 -0.023380492 -0.015943618 -0.04693125
0000b0 b4 af 6f 3d e4 64 8c 3c 80 ba 0a bd 48 f8 68 bd
       0.058517173 0.017137952 -0.033869267 -0.056877404
0000c0 bc 69 5f 3d f7 b0 ee 3c 34 92 3f 3c 6a dd 9d bc
       0.054544196 0.029137118 0.011692572 -0.019270618
0000d0 16 2c 3f 3d 1c a7 4d 3d 16 31 4e bd 8d 1f 53 3d
       0.046672903 0.050208196 -0.05033978 0.05154376
0000e0 ec 7d ab bd cd 1d a2 3b ae 9c 16 3d bc 77 03 bc
       -0.08373627 0.0049474 0.036770515 -0.008024152
0000f0 37 d6 b4 3c a0 e9 83 3d 99 15 a0 bc 51 55 47 bb
       0.022074802 0.06441045 -0.019541549 -0.0030415843
000100 90 39 2e bb 67 83 88 bd 13 75 b6 bb fa 92 8b 3c
       -0.0026584603 -0.06665688 -0.0055681556 0.017037857
000110 4b c6 2a bd b7 3f 5a bd b6 12 3e bd 00 bc 18 bc
       -0.041693013 -0.05328342 -0.046404563 -0.009322166
000120 44 cc 37 3d 0a bf 5c bc 52 fe 38 bd e3 a4 33 bd
       0.044872537 -0.013473282 -0.045164414 -0.04385842
000130 90 e7 05 3d 54 32 89 bd 75 ca 3c bd 63 d3 ce bb
       0.03269154 -0.066990525 -0.046091516 -0.0063118204
000140 ec 70 b7 3c 94 cb 7d 3b aa 9b c3 3c 8a cc a3 bd
       0.022392713 0.0038726078 0.023877937 -0.07997997
000150 5c ce c6 3b 3c 33 fc 3a a9 25 b3 bc 26 3b 76 bc
       0.0060670804 0.0019241343 -0.021868544 -0.0150287505
000160 b1 54 a0 3d 87 4f 3f bd 56 69 7d bd 1d c2 9a bd
       0.078286536 -0.046706703 -0.061868034 -0.075565554
000170 53 da 5c bc b5 37 f4 3a 35 47 c2 bc 64 05 be bd
       -0.013479787 0.0018632325 -0.023715595 -0.09278372
000180 c9 5a 15 bd a2 4c 3b bc 4f ea 8a 3d 6d 63 d3 bc
       -0.036463533 -0.011431845 0.06782972 -0.025804246
000190 42 44 6f bd ae 81 c1 3d d7 31 71 3c cf 86 20 bd
       -0.058414705 0.094485626 0.014721355 -0.039191063
0001a0 d1 7b 85 bc 98 ac 9e 3d fc 60 2e 3d aa a5 b5 bc
       -0.016294392 0.077477634 0.04257296 -0.022173721
0001b0 04 5c ad bb cd 18 44 bd b5 7a 49 bc eb f4 1a 3d
       -0.00529051 -0.047875214 -0.012297322 0.03783123
0001c0 04 1a 82 bd c0 1f db 3b 6d e4 9e 3c 05 29 63 3d
       -0.06352618 0.0066871345 0.019396031 0.05545904
0001d0 ce a4 0d 3d 79 59 5e 3d ba 59 f3 bc 2e f4 76 3d
       0.034580998 0.054284547 -0.02970587 0.06029146
0001e0 b4 3b 6f bd 4b c3 4c 3d 08 88 36 bc ba 49 a0 bb
       -0.058406547 0.049990933 -0.011140831 -0.0048916014
0001f0 c0 c1 ad bc a0 9f 8e 3d 59 22 cd 3c a8 f9 7a bd
       -0.021210551 0.0696404 0.025040792 -0.061273247
000200 02 99 0a bd 16 a1 ab bd 7c c9 97 3d 6b 33 62 bd
       -0.033837326 -0.08380334 0.07411477 -0.055224817
000210 89 50 75 3d 6a 3a ef 3b 86 e9 35 bd cc 4b 92 3d
       0.059891257 0.0073006647 -0.04441216 0.07143363
000220 23 fd a3 3c db a6 fc 3c 4c 73 8b 3c 4b cb 92 3d
       0.020018166 0.030841282 0.017022751 0.07167681
000230 d6 7d 06 bd e5 34 93 bd 8f f7 b8 bc 49 45 2c bd
       -0.03283485 -0.07187823 -0.022578983 -0.042058263
000240 4c 5c 81 bd 48 23 64 3d 52 8e cb bc 66 80 33 3c
       -0.06316432 0.05569771 -0.024848137 0.010955906
000250 d2 df 41 bd 81 e2 b8 bd bc 86 58 bd d0 4b 85 3d
       -0.047332592 -0.09027577 -0.052862868 0.06508601
000260 64 67 b0 bc 38 43 18 bd c1 58 13 3d b3 57 f0 bc
       -0.021533675 -0.03717348 0.035973314 -0.029338693
000270 ec 25 b1 bc a3 d2 d9 3c 01 6e cb bc 23 6c e6 3d
       -0.021624528 0.026589697 -0.024832727 0.11251094
000280 0c 2c 8a 3d 36 03 81 3d f1 13 20 bd eb 93 95 3d
       0.067466825 0.062994406 -0.039081518 0.07303604
000290 d9 b8 66 3d 1d e1 44 bd 62 a5 e0 bc 74 bd 5e bd
       0.05632863 -0.048066247 -0.02742261 -0.054379895
0002a0 08 29 e8 ba 13 b3 98 3a 4c 7e 05 bd fb e3 02 bd
       -0.0017712424 0.0011650048 -0.03259115 -0.0319557
0002b0 5d c9 02 bd 6e 3b 2c 3c 87 f1 01 3d 1f 86 2d bd
       -0.031930316 0.010512216 0.03172448 -0.042364236
0002c0 04 45 2b 3d 68 c5 22 3c 77 b3 55 3c 27 c3 c1 bc
       0.041813865 0.009934761 0.013043276 -0.023652626
0002d0 38 fb 8b bd 77 d8 17 bd cf e4 44 bd bf f6 b8 bd
       -0.068350255 -0.03707167 -0.04806977 -0.09031438
0002e0 6f 7f 71 3c 15 e1 7d bc f9 44 53 bd 19 ae de 3d
       0.014739855 -0.015495558 -0.05157945 0.1087305
0002f0 4c 26 13 bd b0 b0 73 bd 48 e9 ae bd 37 ad bc 3d
       -0.035925195 -0.059494674 -0.085405886 0.092127256
000300 4c 2d 6a 3c 20 35 af 3b 7d 3a 94 3d c8 54 2d 3c
       0.014293026 0.005346909 0.07237718 0.010579295
000310 da fb 8e 3d a1 04 8a 3c aa f6 ad 3c f0 80 4a bc
       0.069816306 0.01684791 0.021235783 -0.012359843
000320 ea 86 07 bd e2 3c 61 3d 16 c9 70 3c 90 54 25 3d
       -0.03308765 0.054989703 0.01469638 0.04036385
000330 bb b3 63 bd 14 54 6d bc 85 50 55 3d 90 87 a9 bc
       -0.055591326 -0.014485378 0.052078743 -0.020694524
000340 da db 45 3d f2 6e 92 bd 28 4b 82 3c d2 f7 42 3d
       0.04830537 -0.071500674 0.015904978 0.04759962
000350 cb 57 c4 3c 19 32 29 3d 77 58 2c bd 1b 29 0c 3d
       0.023967644 0.041307542 -0.042076554 0.03421889
000360 e4 a8 14 bd d6 3b 80 bc d9 b2 3a 3d a4 e8 77 3c
       -0.03629388 -0.015653532 0.04558072 0.015131149
000370 4b 9f b1 bd 3a ee 98 3d 98 f6 9c bb d0 1e 28 bc
       -0.08672961 0.07467313 -0.0047901385 -0.0102612525
000380 be ce 55 bd 4f 8e aa 3d eb 68 2a 3b c1 b4 c4 3d
       -0.052199118 0.083279245 0.0026002477 0.096047886
000390 8e 11 4a bd a0 5e 4b 3d c3 f2 db 3b b3 b2 6f bc
       -0.049333148 0.04965079 0.006712289 -0.014630008
0003a0 8c 51 65 bc 6f 61 29 bd 97 b5 66 3c 49 16 87 bd
       -0.013996493 -0.041352686 0.01408138 -0.065960474
0003b0 88 54 49 bd 18 38 55 bd b3 9a bd 3b 57 16 d6 bc
       -0.04915288 -0.05205545 0.005786264 -0.0261337
0003c0 a6 b8 17 bc c9 00 17 bd f4 9e a4 bd 54 a6 25 bb
       -0.009260332 -0.036865983 -0.080381304 -0.0025276141
0003d0 0e ca 5c 3d 28 74 5c bd aa 0d 37 3d 24 5d 4f 3d
       0.053903632 -0.053821713 0.044690765 0.050625935
0003e0 6a b7 bf 3c f7 46 b0 3c 1a 2b 5b bd 61 bb 9a 3b
       0.023402888 0.021518214 -0.0535079 0.0047220443
0003f0 a4 b0 96 3d d4 11 82 bc 42 3a f9 3c e4 4c 32 bd
       0.0735791 -0.015877642 0.030423287 -0.04353036

fc4.weight f4 [2, 256]
000000 00 d2 24 3e 6b 57 32 3e 9c 89 f2 3d 62 0e 03 bd
       0.16095734 0.1741616 0.11842653 -0.03199614
000010 d8 3e c5 be 38 71 1d bc d0 48 dc be e6 0a 2b 3c
       -0.38524508 -0.009609513 -0.43024302 0.01043961
000020 31 4e fa be 06 51 a0 3e 1e 33 b9 3c 5f 63 77 be
       -0.4888778 0.31311816 0.022607382 -0.24159001
000030 f9 88 59 be 5e 9a 67 3f 4b 37 23 be bc 2e 84 3b
       -0.21243657 0.9046992 -0.15939061 0.0040338915
000040 1c 36 5f bf f8 70 06 3e 81 77 76 3d 84 9f 1c 3d
       -0.8719194 0.13129032 0.06017256 0.038238063
000050 60 a3 3f 3d 38 20 ab bc 38 ff b2 3e 42 ab db ba
       0.046786666 -0.020889387 0.3496034 -0.0016759413
000060 4d 3c 28 bf 11 2e c1 3e 84 89 58 3e cb 96 d0 be
       -0.6571701 0.37730458 0.21146208 -0.40740046
000070 3f 10 29 3e 59 f7 70 3d 51 d9 c6 be 04 26 21 3e
       0.16510104 0.05882964 -0.38837674 0.15737158
000080 69 f9 19 be 4c 29 97 bf f3 2f 51 be e5 e7 cd 3c
       -0.15036549 -1.1809478 -0.20428447 0.02513499
000090 46 d3 d4 3c 29 c0 08 3d a8 7a 5e 3d d9 d6 7d be
       0.02597965 0.033386383 0.054316193 -0.24788989
0000a0 1f 37 a2 3b 93 5b 2e 3e f2 e3 b3 be 70 d4 e5 3d
       0.0049504186 0.1702712 -0.35134846 0.1122216
0000b0 d3 09 c0 be b5 a6 bd be 06 c0 6f bd a4 61 67 3d
       -0.37507495 -0.3704125 -0.058532737 0.0564896
0000c0 81 b3 60 3e 43 96 9b 3e 52 7d 23 3d 4e 2f da bd
       0.21943475 0.30388078 0.039914437 -0.10653554
0000d0 08 1b fa 3e 65 5a 84 be fa 32 9b 3b fd 08 0d 3e
       0.48848748 -0.25850216 0.0047363015 0.1377296
0000e0 2f 9c cf be 72 80 8c 3d f4 0d c9 be af 29 9a be
       -0.40548846 0.068604365 -0.39268458 -0.30109927
0000f0 1d 0c c3 be 4c 37 be bd 84 f1 09 3d 7c 34 54 3d
       -0.3809518 -0.09287891 0.033677593 0.051807866
000100 41 13 7b bc 06 c5 3a 3c 09 fa 22 be a4 49 9f bc
       -0.015324415 0.011399513 -0.15915693 -0.019444294
000110 34 36 34 3d c7 3f 4b bf dd 13 e0 3c 87 e4 83 3d
       0.043997005 -0.7939419 0.027353222 0.064400725
000120 ff 37 85 be 02 77 fa bd be 45 62 3d e4 d3 8c 3c
       -0.26019284 -0.1222973 0.055242293 0.017190881
000130 79 93 0b 3e ce 46 e5 3c 38 f5 42 3e b2 49 c7 be
       0.13630475 0.027987864 0.19038856 -0.38923413
000140 26 7e 1e be 4a 3f 5b 3e 5d 49 55 be 80 b2 f3 bd
       -0.1547781 0.21410862 -0.20828767 -0.118992805
000150 fe db 87 3e 03 66 81 3d a8 3a 6d 3e c1 db 8c 3d
       0.26535028 0.06318285 0.23166907 0.06877852
000160 9d dd 21 be 67 62 d7 3b 58 a8 9e bc 7c 4d ba be
       -0.15807195 0.00657301 -0.019367382 -0.3638724
000170 5f 4d 66 3d 09 cb fc 3d 80 eb 6a 3d 00 aa a0 bf
       0.05622613 0.123434134 0.057353497 -1.255188
000180 c2 8e a8 bc 08 97 59 bd 85 44 8f 3c 8e ad 97 3d
       -0.020575885 -0.05312255 0.017488727 0.0740615
000190 3c 80 8b 3c ed 2d 62 be 40 39 a4 3e 2f 6e 44 ba
       0.01702892 -0.22087832 0.32074928 -0.0007493225
0001a0 bf 06 92 3c 89 6f 69 3e 6f b4 57 bc 1e 65 5d 3c
       0.017825482 0.22796454 -0.013165577 0.013512878
0001b0 63 c9 8f bf d3 c1 d3 bd 85 1b ee bd 95 c2 46 3d
       -1.1233333 -0.103397034 -0.11626343 0.04852541
0001c0 d2 0f af 3b 27 5b a1 be 4f 7a 2b 3c 85 56 76 3e
       0.005342462 -0.31514856 0.010466172 0.24056442
0001d0 ce 0e 06 3e 03 44 eb 3d ba 14 9f be fa 9f 0c be
       0.13091585 0.114875816 -0.310705 -0.13732901
0001e0 ea 4b 68 be 66 c4 1c be 0e 81 44 bd de dc 0a 3e
       -0.22685209 -0.15309295 -0.04797464 0.13560817
0001f0 e6 ef ac 3b 9c 6a 41 3e a3 eb 1d be a8 3f a1 bf
       0.0052776216 0.18888324 -0.1542192 -1.2597551
000200 f0 05 86 3c c7 f4 a8 be 56 de 0a be 43 43 8a bf
       0.016360253 -0.3299925 -0.13561377 -1.0801777
000210 90 e5 73 3e 80 08 53 bd 91 5e 65 3d 43 50 6a bd
       0.2381804 -0.051521778 0.05599839 -0.05720545
000220 0f fe 50 3d f7 aa 40 3d 39 66 cf be 96 9d 35 3e
       0.05102354 0.047038045 -0.40507677 0.17735896
000230 03 c8 21 3d 0a 91 e8 be 84 16 d8 3c 00 1c 6a bc
       0.039497387 -0.45423156 0.026377924 -0.014288902
000240 9f 3d da 3c 30 a6 09 3e a9 24 13 be 71 6a 95 be
       0.026640711 0.13442302 -0.14369453 -0.2918277
000250 80 eb 11 3e 51 a6 9d be 16 ee 91 3e af ee 78 3e
       0.14249992 -0.30790952 0.28501958 0.243098
000260 7a 1c c3 be 3a c7 49 bd 0a 67 e7 3b 63 91 92 3e
       -0.38107663 -0.049262263 0.0070618438 0.28626546
000270 bb 83 88 be 51 8b d9 3d 5e 7c 2c 3d 1a 6a 4d 3e
       -0.26663002 0.106222756 0.042110793 0.20060006
000280 9c 21 8c bd 7d 2e 80 3e 94 94 03 3e 60 09 43 be
       -0.06842348 0.25035468 0.12849647 -0.19046545
000290 fe 37 23 3d 95 38 3d 3e a6 4b 73 3b 4e 76 61 3c
       0.03984832 0.18478616 0.0037123947 0.013761116
0002a0 3d 56 78 be 8c f0 95 be fa 14 ab bd 68 5c d5 3b
       -0.24251647 -0.29285085 -0.0835361 0.00651126
0002b0 8e 6c c5 3b 1c 3e 7e 3d cf 6f e3 bd 0a 58 7b 3d
       0.0060249036 0.06207095 -0.1110531 0.061363257
0002c0 b3 a5 3f be b8 ae 85 3d e5 55 f4 3e 44 b5 5c be
       -0.18715553 0.065274656 0.47721782 -0.21553522
0002d0 98 20 6e bd 44 50 c4 be 90 8a 94 3c 2e 11 b1 3d
       -0.058136553 -0.38342488 0.018132478 0.08645855
0002e0 8f 5e 55 3e 2d 37 0b bd 03 e6 cb 3d 44 51 fd 3e
       0.20836852 -0.033988167 0.09955981 0.49476063
0002f0 33 c8 9d 3e a0 ee 6d bd ed 1c 97 bf f5 5a 8d 3e
       0.30816802 -0.0580889 -1.1805702 0.27608457
000300 88 37 76 3e 8f bf 85 3d 20 24 12 3e f3 a1 a0 be
       0.24044621 0.065306775 0.14271593 -0.31373557
000310 fb 90 db 3d 96 88 32 bd c1 d2 6a 3d dc 2d fd 3c
       0.10721012 -0.04358729 0.057329897 0.030905657
000320 87 5c d6 3c b8 81 fe 3d 50 fd ef be f1 65 99 3e
       0.026167167 0.12427086 -0.4687295 0.29960588
000330 62 29 95 3d de bd 89 3c 1d fb bd 3d f6 08 68 3d
       0.07283284 0.016814169 0.09276412 0.05664917
000340 43 5b 06 3d 7e 94 32 3e 98 04 3a 3f c5 a6 0a 3b
       0.032801878 0.17439458 0.7266326 0.0021156531
000350 29 cc 62 3d c7 93 43 3e 64 19 5c bf ff 5d 12 be
       0.055370484 0.19099341 -0.85976243 -0.14293669
000360 1b e2 ae be 7b 59 98 bc e4 61 52 3c 09 3a 92 ba
       -0.3415688 -0.018597355 0.012840722 -0.0011156212
000370 e0 8f f1 be 66 be 01 be 4d 55 15 bb 65 22 af 3d
       -0.4718008 -0.12670287 -0.002278644 0.08551482
000380 b0 f8 1c bd b2 8c 83 3e d5 b5 c3 be 95 58 5c 3e
       -0.038323104 0.2569328 -0.38224664 0.21518166
000390 b3 75 a8 3c b0 b2 86 be ae f2 95 bc f1 5e 82 be
       0.020563936 -0.26308203 -0.018304195 -0.2546306
0003a0 41 b6 88 3d 34 41 94 bb 54 5d cf be 67 7f 50 be
       0.06675387 -0.0045243744 -0.4050089 -0.203611
0003b0 c9 96 b6 3e cc 37 e8 bc 4b 9d 2d 3e 75 30 96 be
       0.35661915 -0.028346919 0.16954534 -0.29333845
0003c0 14 85 a8 be 9e 05 9d 3c 17 a1 60 be 99 a7 e1 3c
       -0.3291403 0.019167718 -0.21936451 0.027545737
0003d0 08 34 4d 3d 2d 2c 19 3e 80 6a c1 be 59 c2 18 bd
       0.05009845 0.14958258 -0.37776566 -0.03729472
0003e0 32 11 a1 be 30 23 90 3e 84 01 d3 bc 85 c2 62 3e
       -0.3145843 0.28151846 -0.025757559 0.22144516
0003f0 34 6d ef 3d 0f 58 9d 3c e7 e5 29 3d a4 0c da bc
       0.11690751 0.019207029 0.041479018 -0.026617356

fc4.bias f4 [2]
000000 32 ea d7 3d 5d ce a4 bc
       0.10542716 -0.020117933
